01-DL-toolbox(Pytorch)/UDL/pretrained-model/QB/dicnn.pth (torch, 171173 bytes, 6 tensors)

conv1.weight f4 [64, 5, 3, 3]
0.033949174 0.22937106 0.067739084 -0.1420994 0.08327888 0.5355437 -0.3940002 0.13667567
0.016407635 -0.26582876 0.518613 0.03044572 -0.08221475 0.26950318 -0.21544646 -0.4084495
0.3208467 -0.10868965 0.30777445 -0.15676922 -0.100327365 -0.22324808 0.27824703 0.06116092
-0.06583852 0.09812303 0.09674661 -0.14519878 -0.31860933 0.04658643 0.053734604 0.3861884
-0.105284914 0.6512434 -0.5093968 -0.19690552 0.0048359702 -0.12084681 0.12354839 -0.30143985
0.29563928 0.08924848 -1.2188947 -0.036950663 -0.045508467 -0.010086711 0.26231992 0.10373099
-0.13120818 -0.114864044 0.0009590773 -0.13202992 -0.27322358 0.34565926 0.17141095 -0.041590124
-0.3924458 -0.35315 0.038718212 0.33133486 0.32809523 -0.0391507 -0.34551898 -0.13871174
0.12925722 0.3117363 0.069335975 -0.0735419 0.22076966 -0.32841834 0.16931447 0.40421504
-0.014739639 0.39216852 -0.3136744 0.26909792 -0.28510475 -0.0359691 0.1296496 0.022742968
-0.2500778 0.3375792 0.063696615 0.14854375 0.18952447 -0.17401434 0.08465622 -0.010764579
-0.17854172 0.0095370775 -0.122378714 -0.10236839 -0.056502692 0.25661448 0.11096663 -0.38148883
0.121501565 -0.18010095 0.056873612 -0.20420364 -0.09318935 0.14412771 0.28307378 -0.24829206
0.13513537 0.12155839 0.09747695 -0.0021575894 -0.49489757 -0.118225135 -0.30116752 0.43703884
-0.24481247 0.17224829 0.28940108 0.011549247 -0.116480365 0.35006788 0.5719598 0.22499134
-0.26718313 -0.013317968 -0.17978324 -0.5276512 -0.019174302 0.12750942 -0.011764565 -0.009581676
-0.008845911 -0.073563956 0.2083399 -0.08024495 -0.016638884 -0.08360529 0.03393299 -0.1328531
0.27338314 0.26621807 0.20631786 0.33600217 0.14706138 -0.3288106 -0.08522963 -0.20290503
-0.39335942 0.16758232 -0.2636164 -0.036899608 0.5718495 -0.06467245 -0.33954173 -0.04889716
-0.31222185 -0.13488962 0.048827015 -0.40522718 0.08424327 0.5369958 0.6832283 -0.11539288
0.2401432 -0.07649762 0.08559338 -0.26203626 0.35612422 0.1197768 -0.26083514 -0.32598767
0.12307047 -0.03605106 0.14004949 0.041281614 0.012745185 0.02726728 -0.007539003 0.028321575
-0.016150413 0.05059873 -0.0047153025 0.023929615 0.26755732 0.18260588 0.05427514 -0.07196352
-0.06861266 -0.1325604 0.38402313 0.09907332 -0.5440591 -0.07445397 -0.19118302 0.22009173
0.096571684 0.21657416 -0.30630243 0.078099005 0.3099131 0.0044580796 -0.12687565 -0.2551738
0.07046212 -0.05540453 0.27092838 0.085760996 0.0027695769 0.23694175 -0.018046305 -0.3501604
0.13504134 0.27482525 0.0967866 0.14441702 0.0469029 -0.19632328 0.09924006 -0.019865204
0.18674944 -0.30641314 -0.13445832 0.20760773 -0.255439 -0.09943316 -0.2569548 -0.08057945
0.0066839014 0.19228104 -0.34269282 -0.045840144 -0.24940753 0.25572962 -0.14232112 0.07147324
0.089628905 -0.041215956 0.10480494 0.0757481 0.3394526 -0.055695113 -0.058161765 -0.29354873
-0.38492694 0.24449553 -0.21031532 -0.08330838 0.27739832 0.043008395 -0.45949498 0.17828026
0.003846493 0.19009422 0.51368695 0.17039318 0.25799665 -0.2783368 0.12688114 0.38226008
00000000: 4a0e 0b3d 3fe0 6a3e caba 8a3d 8182 11be
00000010: 1e8e aa3d 6419 093f 65ba c9be b5f4 0b3e
00000020: 4e69 863c b51a 88be d2c3 043f 4d69 f93c
00000030: 3560 a8bd 52fc 893e ff9d 5cbe 4b20 d1be
00000040: 0546 a43e ae98 debd 9d94 9d3e 1c88 20be
00000050: 6f78 cdbd 259b 64be 6576 8e3e df83 7a3d
00000060: 59d6 86bd baf4 c83d 1623 c63d fdae 14be
00000070: c320 a3be 6ad1 3e3d d118 5c3d 7cba c53e
00000080: 9e9f d7bd e3b7 263f d467 02bf 9aa1 49be
00000090: 0f77 9e3b 887e f7bd f006 fd3d 5356 9abe
000000a0: 085e 973e e8c7 b63d be04 9cbf 9459 17bd
000000b0: 1667 3abd bb42 25bc cc4e 863e ea70 d43d
000000c0: 705b 06be d73d ebbd 976a 7b3a da32 07be
000000d0: f6e3 8bbe 40fa b03e 5a86 2f3e 685a 2abd
000000e0: a8ee c8be 14d0 b4be fd96 1e3d b9a4 a93e
000000f0: 19fc a73e 7c5c 20bd dde7 b0be 730a 0ebe
00000100: 015c 043e e69b 9f3e 0500 8e3d 239d 96bd
00000110: 7111 623e 7326 a8be c660 2d3e 46f5 ce3e
00000120: 877e 71bc 50ca c83e ee99 a0be 34c7 893e
00000130: 40f9 91be 5654 13bd ddc2 043e 764f ba3c
00000140: 330a 80be 2ed7 ac3e 5f73 823d da1b 183e
00000150: b412 423e d130 32be 3e60 ad3d eb5d 30bc
00000160: a4d3 36be 6741 1c3c b1a1 fabd 85a6 d1bd
00000170: 5e6f 67bd f962 833e 7942 e33d 8152 c3be
00000180: d0d5 f83d 626c 38be 4ef4 683d c21a 51be
00000190: 0fda bebd 3796 133e 0cef 903e 4640 7ebe
000001a0: ed60 0a3e 9bf3 f83d ffa1 c73d 5866 0dbb
000001b0: 3763 fdbe 0520 f2bd a132 9abe 8ec3 df3e
000001c0: 1fb0 7abe db61 303e 612c 943e 0e39 3d3c
000001d0: 428d eebd 193c b33e f56b 123f 2164 663e
000001e0: 3acc 88be 9b33 5abc 1919 38be 2614 07bf
000001f0: 6d13 9dbc d491 023e 29c0 40bc 76fc 1cbc
00000200: 71ee 10bc b3a8 96bd 0e57 553e 7757 a4bd
00000210: 454e 88bc 4039 abbd 52fd 0a3d a50a 08be
00000220: e0f8 8b3e bc4d 883e fd44 533e 7a08 ac3e
00000230: 4297 163e dd59 a8be df8c aebd 56c6 4fbe
00000240: 6866 c9be b39a 2b3e bbf8 86be 0b24 17bd
00000250: bb64 123f fd72 84bd 6ad8 adbe 6348 48bd
00000260: 8bdb 9fbe 8120 0abe d6fe 473d f079 cfbe
00000270: bc87 ac3d 8f78 093f 0de8 2e3f 1a53 ecbd
00000280: 19e8 753e c9aa 9cbd 954b af3d 9e29 86be
00000290: ea55 b63e 8a4d f53d 2f8c 85be dbe7 a6be
000002a0: 5f0c fc3d 47aa 13bd 2269 0f3e e916 293d
000002b0: 2ed1 503c a15f df3c be09 f7bb a602 e83c
000002c0: df4d 84bc 9d40 4f3d d382 9abb 0a08 c43c
000002d0: 46fd 883e 09fd 3a3e 9c4f 5e3d 9c61 93bd
000002e0: cb84 8cbd eabd 07be ae9e c43e f4e6 ca3d
000002f0: 7547 0bbf 537b 98bd 7bc5 43be ba5f 613e
00000300: 60c7 c53d 9ec5 5d3e acd3 9cbe 5ff2 9f3d
00000310: eeac 9e3e 1515 923b b1eb 01be 24a6 82be
00000320: 724e 903d dcef 62bd 20b7 8a3e 76a3 af3d
00000330: ca81 353b dca0 723e d8d5 93bc 3948 b3be
00000340: 4748 0a3e e5b5 8c3e 0e38 c63d 0ee2 133e
00000350: 411d 403d f808 49be 5f3e cb3d 5abc a2bc
00000360: 3f3b 3f3e 2fe2 9cbe 71af 09be 1f97 543e
00000370: e7c8 82be 9da3 cbbd 948f 83be d706 a5bd
00000380: a104 db3b 52e5 443e 6f75 afbe e0c2 3bbd
00000390: b064 7fbe feee 823e a1bc 11be 9060 923d
000003a0: 5c8f b73d 10d2 28bd f9a3 d63d d221 9b3d
000003b0: bbcc ad3e 8f20 64bd 083b 6ebd 054c 96be
000003c0: 2515 c5be 095d 7a3e e65c 57be 959d aabd
000003d0: 2707 8e3e 9229 303d ed42 ebbe 1a8f 363e
000003e0: 7215 7c3b 0fa8 423e fd80 033f 8d7b 2e3e
000003f0: 2318 843e 2982 8ebe 21ed 013e 98b7 c33e

conv1.bias f4 [64]
-0.016898127 0.017599571 0.0019964322 -0.015163747 0.02065554 0.024621999 0.0466599 -0.066051245
-0.040531997 0.108892106 -0.021543153 0.042397376 0.12557063 -0.032014027 0.051255997 0.02876973
0.0069170813 0.034877393 -0.008487719 -0.045240447 -0.02564972 -0.14576852 -0.028104037 0.032610904
0.087607324 0.0261957 -0.04588361 0.07471762 -0.21304913 -0.06271235 0.03266163 -0.02675887
-0.04454999 -0.03642228 0.009915373 0.038981937 0.068007015 0.015123078 0.072371796 0.0014780641
-0.043887235 0.08911212 -0.10490835 -0.016309448 -0.07417616 -0.0036112457 -0.033960022 -0.11699856
0.19821797 0.024846178 -0.025590114 -0.060710136 -0.00523856 -0.103693314 0.0075231665 0.0078023425
0.01613869 0.031303156 0.009346734 0.08591525 -0.023498643 0.04691033 -0.067656495 0.028950097
00000000: f16d 8abc fa2c 903c 93d6 023b 5d71 78bc
00000010: cf35 a93c 13b4 c93c 741e 3f3d e045 87bd
00000020: e104 26bd d302 df3d 447b b0bc dfa8 2d3d
00000030: 9695 003e 2421 03bd cff1 513d 7fae eb3c
00000040: afa8 e23b 99db 0e3d 1310 0bbc 0c4e 39bd
00000050: 5d1f d2bc 5844 15be 703a e6bc 0393 053d
00000060: 786b b33d 5d98 d63c 74f0 3bbd 8d05 993d
00000070: 8d29 5abe 556f 80bd 34c8 053d 6b35 dbbc
00000080: 0d7a 36bd 872f 15bd 1774 223c 86ab 1f3d
00000090: 4347 8b3d c9c6 773c aa37 943d 9abb c13a
000000a0: 1ac3 33bd 6a80 b63d 30da d6bd 649b 85bc
000000b0: ace9 97bd a6aa 6cbb aa19 0bbd f19c efbd
000000c0: a7f9 4a3e 368a cb3c 5ca2 d1bc 31ab 78bd
000000d0: 3aa8 abbb 295d d4bd e584 f63b cbaa ff3b
000000e0: 4935 843c bd37 003d 0b23 193c 56f4 af3d
000000f0: 3a80 c0bc 0c25 403d 7d8f 8abd c128 ed3c

conv2.weight f4 [64, 64, 3, 3]
-0.005226232 0.20521036 0.06585805 -0.0025903236 0.037848745 -0.024766201 0.1357903 -0.027325708
-0.016207093 -0.01227914 0.07927435 0.038921326 0.034381412 -0.007166915 -0.14525196 0.08959365
0.08216941 0.021198088 0.160433 0.18539983 -0.081064545 0.07390581 0.029428275 -0.0724319
0.2367514 -0.0050149164 -0.25239733 -0.12497446 -0.15303685 -0.053700227 0.058088046 -0.058009714
-0.15239432 -0.15488976 -0.21855806 -0.3466117 -0.009449634 0.03327064 -0.08235302 -0.19829164
-0.16404347 0.07412769 -0.14563067 -0.11599469 0.027585529 -0.12949345 -0.098834865 -0.20078631
-0.016075874 -0.026452785 0.049218774 0.1119413 0.09661039 0.05376935 -0.026034178 0.056067873
-0.015629737 -0.07205563 0.05780159 -0.042203788 -0.027660038 -0.016332144 -0.052158847 0.10938831
0.17939183 0.06330401 0.035578765 0.07953073 -0.004637903 -0.15511999 -0.07459835 -0.031918097
-0.124015875 -0.23314431 -0.23452543 -0.012178882 0.03163359 0.12543222 -0.057672165 -0.13635536
-0.044729155 -0.06941734 -0.058690455 -0.032177966 0.0064994153 0.0143121155 -0.06049611 -0.011475353
-0.036118977 0.038881253 0.033649456 0.008488956 -0.009998416 0.081173256 -0.13339643 0.03852207
0.06915103 0.059070088 -0.0021020868 0.062848665 0.08331688 0.07928737 0.07227138 0.039759114
-0.09209375 0.004720808 -0.046402752 0.020055545 -0.20031212 0.1273784 -0.17443164 0.09344074
0.14279972 0.03306709 0.022715934 -0.19706121 0.12377109 -0.06355179 0.052864507 0.067440994
0.1211563 0.048960324 0.050782803 0.16497903 0.033271093 -0.056415055 -0.25624514 -0.078968704
-0.06468521 0.013750004 -0.049392056 0.11398494 0.017517252 0.061944794 0.042158093 -0.10617653
0.014611306 0.08984781 -0.111624606 0.039722126 -0.07052145 0.032905012 0.00030833462 -0.105799764
-0.18194333 -0.12315197 -0.18432209 -0.13705249 -0.06906651 -0.014590605 0.12827031 -0.02440655
0.077589825 -0.004779954 0.08994203 0.123786636 -0.037487756 0.09038831 -0.09302976 -0.19869202
-0.12100235 -0.057398777 0.15675673 -0.14472793 0.012914065 0.044876512 -0.096152276 0.046576552
0.109541066 0.121986344 0.053649932 -0.047019105 -0.07964466 0.04607317 -0.015479154 0.065914586
0.06805258 -0.06640557 0.008651933 -0.08889744 -0.012314393 0.01255383 -0.0010375967 -0.0011113582
-0.062471434 -0.024865633 -0.024908075 0.043268785 0.03425834 -0.10890887 -0.033793453 0.07769406
-0.11979553 -0.0034061167 -0.027199427 0.03418631 0.025997488 0.09935903 0.11602482 0.03469529
0.06848321 -0.012444347 -0.039889574 0.049057573 -0.06281315 -0.13866852 0.13875479 0.015561642
0.20410022 0.024738537 -0.22025019 -0.082767114 0.12768218 -0.058102738 -0.016725184 -0.08216243
0.2416935 0.08582065 0.04160024 0.19032271 0.037528478 0.007906763 -0.2636731 0.02811686
0.15581648 0.08080643 -0.07652764 0.061025936 0.17341407 0.011104458 0.05554265 0.05196068
-0.04662843 0.014903681 -0.009998852 0.11807248 0.2812963 0.024030467 0.05660676 0.06579274
0.038664963 -0.14309984 -0.08048399 -0.13794367 -0.08582941 0.0023587123 -0.04598841 -0.15444054
0.041284736 -0.079314865 -0.19273636 -0.049537268 0.07253684 -0.003815713 -0.019323068 0.04955085
00000000: d040 abbb aa22 523e 96e0 863d 6bc2 29bb
00000010: 4907 1b3d 7de2 cabc 9d0c 0b3e 2ada dfbc
00000020: bdc4 84bc 722e 49bc 975a a23d f86b 1f3d
00000030: 86d3 0c3d 71d8 eabb eebc 14be e07c b73d
00000040: 7048 a83d 9da7 ad3c 8c48 243e 74d9 3d3e
00000050: 2b05 a6bd ee5b 973d 9113 f13c 2d57 94bd
00000060: f66e 723e 2b54 a4bb 393a 81be 9cf2 ffbd
00000070: b1b5 1cbe c5f4 5bbd bbed 6d3d 989b 6dbd
00000080: 420d 1cbe 6c9b 1ebe afcd 5fbe 1777 b1be
00000090: a3d2 1abc cb46 083d b3a8 a8bd f70c 4bbe
000000a0: 03fb 27be 42d0 973d 3520 15be a08e edbd
000000b0: 0cfb e13c ee99 04be ef69 cabd ed9a 4dbe
000000c0: 8db1 83bc 83b3 d8bc a099 493d 7b41 e53d
000000d0: abdb c53d 403d 5c3d a145 d5bc 6da7 653d
000000e0: ef09 80bc e791 93bd 5cc1 6c3d e1dd 2cbd
000000f0: 4e97 e2bc fdca 85bc 84a4 55bd fa06 e03d
00000100: 7eb2 373e 88a5 813d 0abb 113d 02e1 a23d
00000110: 8df9 97bb c6d7 1ebe 05c7 98bd 8dbc 02bd
00000120: 09fc fdbd 62bd 6ebe 6f27 70be ef89 47bc
00000130: 3992 013d 4e71 003e a639 6cbd bda0 0bbe
00000140: eb35 37bd ae2a 8ebd 6765 70bd 0bcd 03bd
00000150: 0cf9 d43b 5d7d 6a3c c5ca 77bd 1e03 3cbc
00000160: 7ef1 13bd f341 1f3d 03d4 093d 4315 0b3c
00000170: 65d0 23bc 2a3e a63d 1399 08be 51c9 1d3d
00000180: 0e9f 8d3d 7af3 713d 2ac3 09bb cdb6 803d
00000190: 0aa2 aa3d 6b61 a23d 0403 943d 74da 223d
000001a0: a69b bcbd 02b1 9a3b d010 3ebd 874b a43c
000001b0: 9f1e 4dbe 7c6f 023e 359e 32be dc5d bf3d
000001c0: 173a 123e 5b71 073d c416 ba3c 6aca 49be
000001d0: b27b fd3d 7127 82bd 7488 583d 811e 8a3d
000001e0: cb20 f83d 9f8a 483d a101 503d 43f0 283e
000001f0: 4547 083d 7913 67bd 9032 83be 58ba a1bd
00000200: ae79 84bd b247 613c 534f 4abd f070 e93d
00000210: 5780 8f3c d3b9 7d3d f7ad 2c3d 1573 d9bd
00000220: 4264 6f3c 2102 b83d 719b e4bd abb3 223d
00000230: 8d6d 90bd 68c7 063d f9a7 a139 8cad d8bd
00000240: 5a4f 3abe 1a37 fcbd eebe 3cbe 7d57 0cbe
00000250: be72 8dbd 6f0d 6fbc 4b59 033e 3ff0 c7bc
00000260: 6ae7 9e3d 29a1 9cbb 8733 b83d d983 fd3d
00000270: c38c 19bd 821d b93d 6386 bebd ec75 4bbe
00000280: 14d0 f7bd fb1a 6bbd d684 203e 8f33 14be
00000290: 8495 533c 6fd0 373d 7ceb c4bd 0ec7 3e3d
000002a0: 1157 e03d fad3 f93d 08c0 5b3d 1b97 40bd
000002b0: bd1c a3bd 38b7 3c3d 479c 7dbc 3afe 863d
000002c0: 275f 8b3d a5ff 87bd d6c0 0d3c dc0f b6bd
000002d0: 4fc2 49bc 94ae 4d3c f8ff 87ba feaa 91ba
000002e0: 0ce2 7fbd 03b3 cbbc 050c ccbc 9c3a 313d
000002f0: 7952 0c3d 9d0b dfbd 016b 0abd 101e 9f3d
00000300: 5c57 f5bd 2839 5fbb 55d1 debc f206 0c3d
00000310: aff8 d43c bf7c cb3d 6c9e ed3d a61c 0e3d
00000320: ed40 8c3d 60e3 4bbc 4063 23bd 98f0 483d
00000330: 2ea4 80bd 1fff 0dbe bc15 0e3e 42f6 7e3c
00000340: a6ff 503e 79a8 ca3c 4489 61be ce81 a9bd
00000350: 1ebf 023e 23fd 6dbd 4103 89bc c744 a8bd
00000360: 807e 773e bdc2 af3d 0365 2a3d f5e3 423e
00000370: 76b7 193d 5e8b 013c 2900 87be 5455 e63c
00000380: 5b8e 1f3e d77d a53d 86ba 9cbd 55f6 793d
00000390: 7593 313e 79ef 353c b180 633d b9d4 543d
000003a0: 74fd 3ebd 922e 743c 3ad2 23bc fccf f13d
000003b0: 1206 903e 8bdb c43c 7ddc 673d 58be 863d
000003c0: 275f 1e3d c488 12be cad4 a4bd 1b41 0dbe
000003d0: 54c7 afbd a094 1a3b 585e 3cbd a925 1ebe
000003e0: 2f1a 293d d56f a2bd ae5c 45be 97e7 4abd
000003f0: 328e 943d 0b11 7abb 694b 9ebc d5f5 4a3d

conv2.bias f4 [64]
0.011625706 0.014551291 0.027504532 0.0051502734 -0.0055842297 0.011827257 0.0081831 -0.0021109611
-0.03585566 0.049005784 0.0321251 0.00734653 -0.041784987 0.0017052386 -0.032289375 0.037144262
0.02665237 -0.019969448 -0.017749557 -0.0017727404 0.0069527533 0.028446348 0.041306503 -0.014212596
-0.010268274 -0.028494399 -0.0015222678 0.0075737974 0.030954352 0.014356871 0.02828541 -0.026670566
-0.007915224 -0.032473147 0.009895306 0.025256654 -0.036770333 -0.013529981 -0.029522754 -0.020645631
-0.012372005 0.00486779 -0.0069937 0.01096797 -0.020737076 0.026670326 0.023036405 -0.019073237
0.02048709 -0.02494513 -0.049266834 0.047834657 -0.0028825882 -0.0059065004 0.05567593 -0.016171
0.006107541 -0.038091354 -0.041801956 -0.013086672 -0.007729776 -0.03764184 0.018488633 0.00972676
00000000: bf79 3e3c 8a68 6e3c 2f51 e13c a0c3 a83b
00000010: eafb b6bb 1dc7 413c 6912 063c 0d58 0abb
00000020: 62dd 12bd 4aba 483d 9c95 033d 29bb f03b
00000030: bc26 2bbd 5082 df3a dd41 04bd 9524 183d
00000040: 1256 da3c f896 a3bc 8567 91bc 4c5b e8ba
00000050: ecd3 e33b 5108 e93c 0231 293d f3db 68bc
00000060: 433c 28bc 166d e9bc d586 c7ba 9e2d f83b
00000070: fb93 fd3c 1539 6b3c ceb6 e73c 3b7c dabc
00000080: dbae 01bc 9002 05bd ec1f 223c 0be7 ce3c
00000090: 7d9c 16bd daac 5dbc b4d9 f1bc 0721 a9bc
000000a0: f3b3 4abc fb81 9f3b 682b e5bb 00b3 333c
000000b0: cde0 a9bc ba7b da3c d8b6 bc3c 7a3f 9cbc
000000c0: 8bd4 a73c bb59 ccbc 05cc 49bd 46ee 433d
000000d0: cee9 3cbb 518b c1bb 720c 643d 0c79 84bc
000000e0: c421 c83b ae05 1cbd 8738 2bbd 7b69 56bc
000000f0: 104a fdbb 542e 1abd 7975 973c fd5c 1f3c

conv3.weight f4 [4, 64, 3, 3]
0.09478547 0.0782672 0.019944167 0.019632924 0.002010525 -0.03803232 -0.025567722 -0.043262336
-0.06532756 0.004118044 0.017575938 0.0036723781 -0.009393702 -0.017959582 -0.017195193 -0.023977209
-0.0493766 -0.032981705 0.01887891 0.044800233 0.015605266 0.048850786 0.104854375 0.04945769
0.057848215 0.12163702 0.06187817 0.033171665 0.015948122 -0.000997231 0.026711067 0.008936568
-0.0073137437 0.0021265023 -0.013900936 -0.0070339763 0.07444449 0.066290945 0.026518067 0.12477679
0.096995085 0.025003467 0.09252463 0.0762056 0.021728955 0.056314774 0.009476033 0.042138148
-0.01863647 0.024770403 -0.010352256 0.020184342 0.0027010853 0.02861436 0.0058614514 -0.0030555613
-0.0041463436 0.009129984 0.01492498 0.0018927642 -0.010970493 0.0049616992 0.0115506165 0.0016425832
-0.009269209 -0.009181376 0.0030987938 -0.0047073183 0.0011365035 0.018686743 -0.00035258624 0.0076972446
-0.035397176 -0.07040538 -0.016435752 -0.024535734 -0.047167618 -0.01179533 0.009265634 -0.0011765439
0.007856597 -0.09785987 -0.06138484 -0.010328355 -0.13283488 -0.048044365 0.038539205 -0.55508
-0.012250097 0.06730821 -0.0530358 -0.030349692 0.03653342 0.0015004715 -0.034079794 0.04560773
-0.015291598 0.008706983 0.025931224 -0.07869758 -0.12745596 -0.09898825 -0.1027077 -0.11527827
-0.09414263 -0.039058298 -0.108278684 -0.11136612 -0.06355342 -0.082288384 -0.06281579 -0.007361787
-0.014454226 -0.0013598882 0.036536053 0.038401864 0.03550919 -0.051371247 -0.008396785 -0.0002439732
-0.13259389 -0.05873193 0.010507806 -0.122823425 -0.045175437 0.0069027157 0.016807683 -0.05568861
-0.09935293 0.03368655 -0.013693781 -0.044611417 0.048533574 0.03292855 0.010503432 -0.07973356
-0.05908367 -0.10024891 0.17861769 0.14979321 -0.08550111 0.728747 0.37478036 -0.21835123
0.024125258 -0.024565067 0.026821358 -0.0123324515 -0.024441153 -0.022156892 0.002327254 -0.0053398935
-0.030959222 0.057451982 0.04032789 -0.012335861 0.03864762 0.029672485 0.005595772 -0.025377538
-0.0081909895 -0.025249166 0.012441864 0.023011269 0.023262389 0.0002976141 0.0010798572 -0.0020020502
-0.011157078 -0.012749921 -0.02187726 0.058525145 0.05166475 0.026032005 0.06448042 0.06667475
0.010191514 0.03650041 0.06885026 0.03631526 0.09005662 0.06409871 0.030955447 0.06235967
0.01181703 -0.031962268 -0.029372266 -0.066616744 -0.08678225 0.0064068553 0.05595509 0.056677934
-0.03694813 -0.011186093 0.023321388 -0.09120486 -0.08962831 -0.05012257 -0.06405488 -0.003795345
0.025705611 -0.018895123 0.008537038 0.03149482 0.027111247 0.04633599 0.060182977 -0.05300567
-0.11823487 0.08027757 0.08788959 0.11997379 0.275807 0.08273537 0.105469175 0.039247714
-0.03202976 0.0416172 0.06560065 -0.029971689 0.075440265 0.107623994 -0.019508598 0.03537486
0.039707992 0.03556947 0.042491604 0.056616116 -0.029256428 -0.011536721 0.020065077 -0.025477832
-0.006783891 -0.013733228 0.0011567775 -0.00892689 -0.016732197 -0.010030958 -0.0075193234 -0.022703582
-0.004778118 -0.0013821292 -0.002126187 0.021064194 0.02581971 0.07592831 -0.10750469 -0.03364272
0.025669878 -0.14469442 -0.06816226 0.027764143 -1.2482594 -0.8412113 -0.06465419 -0.670108
00000000: e21e c23d 8e4a a03d f361 a33c 3ad5 a03c
00000010: 03c3 033b c7c7 1bbd 6673 d1bc d933 31bd
00000020: 75ca 85bd a8f0 863b 6afb 8f3c 48ac 703b
00000030: 0be8 19bc f91f 93bc efdc 8cbc da6b c4bc
00000040: 1e3f 4abd d317 07bd f2a7 9a3c 7380 373d
00000050: 3bad 7f3c c317 483d e4bd d63d 2694 4a3d
00000060: 40f2 6c3d d41c f93d f773 7d3d 03df 073d
00000070: a3a5 823c 85b5 82ba 2bd1 da3c af6a 123c
00000080: 21a8 efbb ca5c 0b3b c0c0 63bc 457d e6bb
00000090: 5a76 983d 8cc3 873d 6b3c d93c f98a ff3d
000000a0: 5ca5 c63d 12d4 cc3c 8e7d bd3d ae11 9c3d
000000b0: ec00 b23c 52aa 663d 5d41 1b3c 0d99 2c3d
000000c0: 83ab 98bc 4deb ca3c 829c 29bc a259 a53c
000000d0: b104 313b aa68 ea3c 6b11 c03b d03f 48bb
000000e0: 0dde 87bb ee95 153c e787 743c a116 f83a
000000f0: 95bd 33bc c095 a23b cc3e 3d3c f24b d73a
00000100: e1dd 17bc 7b6d 16bc 2215 4b3b d93f 9abb
00000110: bbf6 943a f114 993c 53db b8b9 2b39 fc3b
00000120: a1fc 10bd b230 90bd 45a4 86bc 2aff c8bc
00000130: d532 41bd 3341 41bc e3ce 173c 4336 9aba
00000140: f5b8 003c c16a c8bd ac6e 7bbd 4338 29bc
00000150: de05 08be 2bca 44bd 49db 1d3d b919 0ebf
00000160: a1b4 48bc e3d8 893d 113c 59bd eb9f f8bc
00000170: 11a4 153d 78ab c43a 4197 0bbd 2ccf 3a3d
00000180: 9c89 7abc bca7 0e3c b86d d43c 322c a1bd
00000190: d183 02be 5aba cabd 6a58 d2bd 0317 ecbd
000001a0: dacd c0bd 98fb 1fbd 37c1 ddbd ec13 e4bd
000001b0: 4c28 82bd d086 a8bd 91a5 80bd 253b f1bb
000001c0: 6bd1 6cbc 473e b2ba d4a6 153d 464b 1d3d
000001d0: 1672 113d a86a 52bd ab92 09bc 0fd3 7fb9
000001e0: b1c6 07be e490 70bd ef28 2c3c d98a fbbd
000001f0: e109 39bd 2d30 e23b 44b0 893c bd19 64bd
00000200: 8d79 cbbd e8fa 093d e15b 60bc 76ba 36bd
00000210: 24cb 463d 16e0 063d 9616 2c3c 594b a3bd
00000220: b801 72bd 4d4f cdbd 8ee7 363e 6463 193e
00000230: 351b afbd 2a8f 3a3f 36e3 bf3e 7797 5fbe
00000240: 55a2 c53c ae3c c9bc 77b8 db3c 0d0e 4abc
00000250: d038 c8bc 5f82 b5bc d884 183b 46fa aebb
00000260: 329e fdbc c552 6b3d dc2e 253d 5a1c 4abc
00000270: f74c 1e3d b613 f33c bd5c b73b 8ee4 cfbc
00000280: 8033 06bc 57d7 cebc f6d8 4b3c 2182 bc3c
00000290: c490 be3c 1709 9c39 ff89 8d3a d434 03bb
000002a0: 2dcc 36bc 0be5 50bc f137 b3bc 10b8 6f3d
000002b0: 6b9e 533d 1241 d53c 4f0e 843d c58c 883d
000002c0: 4ffa 263c 7481 153d 5d01 8d3d 4fbf 143d
000002d0: 9b6f b83d 2f46 833d 4796 fd3c da6c 7f3d
000002e0: 379c 413c deea 02bd 1b9e f0bc 5c6e 88bd
000002f0: e4ba b1bd 99f0 d13b 2a31 653d 1f27 683d
00000300: ec56 17bd e045 37bc 7f0c bf3c 9dc9 babd
00000310: 0c8f b7bd 534d 4dbd 342f 83bd 53bb 78bb
00000320: 9394 d23c f2c9 9abc efde 0b3c b600 013d
00000330: 6818 de3c cfca 3d3d 6d82 763d 791c 59bd
00000340: 2025 f2bd 9168 a43d 75ff b33d d2b4 f53d
00000350: 9336 8d3e 2971 a93d 3900 d83d 36c2 203d
00000360: a331 03bd cc76 2a3d a259 863d 3087 f5bc
00000370: 6d80 9a3d f869 dc3d 7fd0 9fbc 3be5 103d
00000380: d9a4 223d 4bb1 113d ad0b 2e3d 4de6 673d
00000390: 2dab efbc 8404 3dbc 845f a43c e3b6 d0bc
000003a0: 674b debb 5501 61bc 039f 973a 1742 12bc
000003b0: f611 89bc e358 24bc a864 f6bb ddfc b9bc
000003c0: c291 9cbb 8f28 b5ba 8057 0bbb d18e ac3c
000003d0: db83 d33c 4d80 9b3d 6b2b dcbd f3cc 09bd
000003e0: a349 d23c c62a 14be a898 8bbd a171 e33c
000003f0: f7c6 9fbf a059 57bf 6a69 84bd 338c 2bbf

conv3.bias f4 [4]
-0.015023104 -0.025190348 -0.017196657 -0.0031757245
00000000: 7723 76bc fd5b cebc 01e0 8cbc d11f 50bb
