01-DL-toolbox(Pytorch)/UDL/pretrained-model/QB/msdcnn.pth (torch, 766959 bytes, 24 tensors)

conv1.weight f4 [60, 5, 7, 7]
0	0xbb0cdfa4	-0.0021495605
1	0xbcab8cab	-0.0209411
2	0x3c919a54	0.017773785
3	0x3ca11f8e	0.019668367
4	0xbbff230b	-0.00778616
5	0xbb6c6abf	-0.0036074368
6	0xbc9ea586	-0.019366037
7	0xbaa1b3de	-0.001233693
8	0x3c49021a	0.012268567
9	0x3b6639a1	0.0035129564
10	0xbca0a8c2	-0.01961172
11	0xbc925f17	-0.017867608
12	0xbbee930b	-0.0072807125
13	0x3c94abd6	0.018148344
14	0xbc385f6b	-0.011253218
15	0x3bfdd78c	0.0077466425
16	0xbb5b208f	-0.0033436154
17	0x3cab39d7	0.020901604
18	0x3b353cce	0.002765465
19	0xbaf54f8c	-0.0018715723
20	0x3bc319af	0.0059539895
21	0xba233f08	-0.0006227349
22	0x3c8fe308	0.017564312
23	0xbca4d06f	-0.02011892
24	0x3ce2a078	0.027664408
25	0x3cd793cb	0.02631559
26	0xbc956002	-0.018234257
27	0xbbb22d7e	-0.005437552
28	0x3cb9ab17	0.02266459
29	0x3c39c410	0.011338249
30	0x3c3674ef	0.011136278
31	0xbaab14b1	-0.0013052431
32	0x3c8fb9d5	0.017544666
33	0x3cb2dc99	0.021833705
34	0x3c266fac	0.010158461
35	0xbca659a5	-0.020306418
36	0x3c6b4a5b	0.014360989
37	0x3c581eb7	0.013190917
38	0x3d2ae941	0.041726355
39	0x3bfb700f	0.0076732705
40	0x3cca3f11	0.024688276
41	0x3c0e983a	0.008703286
42	0xbcbca3c1	-0.023027303
43	0xbac1f5f4	-0.0014798031
44	0xbb03f1d3	-0.0020133152
45	0x3c104e9c	0.008807804
46	0x3c534062	0.012893768
47	0x3c60bdcf	0.013717129
48	0xbc49d327	-0.012318409
49	0xbc7da57c	-0.015481349
50	0xbc766f92	-0.015041249
51	0x3d2d12d5	0.042254288
52	0x3cdb8d74	0.026800849
53	0x3cf328a2	0.029682461
54	0xbcef625a	-0.029221702
55	0x3bc266a8	0.0059326477
56	0xbca68575	-0.02032731
57	0x3d278372	0.04089684
58	0x3b642d8d	0.003481719
59	0x3bef2881	0.0072985296
60	0x3cbf2ebf	0.02333772
61	0xbd4a0251	-0.049318615
62	0x3be37a83	0.006942095
63	0x3cfa1733	0.03052864
64	0xbc33fa6e	-0.010985
65	0x3d51d694	0.05123003
66	0x3d30bc9e	0.04314863
67	0x3d4622f6	0.048373185
68	0xbc1fa433	-0.009743738
69	0x3cb95b33	0.022626495
70	0x3b2846e8	0.002567703
71	0xbbcc9a7b	-0.0062440014
72	0x3c8d5370	0.0172517
73	0x3c41ffd3	0.011840778
74	0x3d8594ce	0.06522523
75	0x3c00cd41	0.007861436
76	0xbc8a4d38	-0.016882524
77	0x3d27453c	0.04083751
78	0xba80644b	-0.0009795515
79	0xbce6582f	-0.028118221
80	0xbcc7c9c4	-0.024388202
81	0xbbda8c8e	-0.0066695875
82	0x3ab21130	0.0013585445
83	0x3c6c6c6e	0.0144301485
84	0x3d38c216	0.04510697
85	0x3d28db64	0.041224852
86	0x3d056f11	0.032576624
87	0x3d65774b	0.05602197
88	0x3ce783e8	0.02826114
89	0xbaac7c38	-0.0013159579
90	0x3babd3c9	0.0052437526
91	0x3c2aa9f1	0.010416494
92	0xbc20adcd	-0.009807062
93	0xbcd2bf11	-0.025725873
94	0x3c95bbf4	0.0182781
95	0x3cd4cee6	0.025977563
96	0x3d055d2a	0.03255955
97	0x3d1b390c	0.0378962
98	0x3c519a9e	0.012793211
99	0xbbf9c10d	-0.0076218904
100	0x3d03d3f1	0.032184545
101	0x3b8491ff	0.0040457244
102	0xbc241e67	-0.010017014
103	0x3c238e39	0.009982639
104	0x3c166f93	0.009181875
105	0x3cdb6cbb	0.026785245
106	0x3c6a5e36	0.014304688
107	0x3c0e410f	0.008682503
108	0x3ca1daa0	0.019757569
109	0x3c9b4cd8	0.01895754
110	0x3cee461b	0.029086163
111	0xbc094908	-0.008379228
112	0xbc398de0	-0.01132533
113	0x3c379a57	0.011206231
114	0x3a3450b4	0.0006878481
115	0xbc41f503	-0.0118382005
116	0xb908e105	-0.00013053797
117	0xba597bdf	-0.00082963513
118	0xbbb454ed	-0.005503288
119	0xbc5e7841	-0.013578475
120	0xbd09cd69	-0.03364316
121	0xbd1d9fcb	-0.03848247
122	0xbd19d610	-0.03755766
123	0x3c9bf246	0.019036423
124	0x3ab6a86e	0.0013935694
125	0xb9b6d160	-0.00034869742
126	0xbcb80107	-0.022461427
127	0xbceed733	-0.02915535
128	0xbd49ea50	-0.049295723
129	0xbce592af	-0.028024046
130	0xbcf0382a	-0.029323656
131	0xbc43f0e0	-0.011959285
132	0x3c549564	0.012975071
133	0xbb9c15d4	-0.0047633443
134	0xbcf2ef36	-0.02965508
135	0xbcf0a2b7	-0.029374463
136	0xbc6b376a	-0.014356473
137	0xbc507e32	-0.0127254
138	0x3bde99d5	0.0067932406
139	0x3c010f36	0.007877162
140	0xbc68d348	-0.01421053
141	0xbc68a0be	-0.01419848
142	0xbcf894dd	-0.030344421
143	0xbcb0583b	-0.021526447
144	0xbc3f5b81	-0.011679531
145	0x3c01e4cd	0.0079280855
146	0x3c0aec60	0.008479208
147	0xbcde7634	-0.027155973
148	0x3cf8760f	0.030329732
149	0xbbbe1a3d	-0.0058014677
150	0x3c9aa2f8	0.018876538
151	0xbd513ee5	-0.05108537
152	0x3cbf8394	0.023378171
153	0x3bb75038	0.0055942796
154	0xbb82e0a9	-0.0039940667
155	0xbd7643a9	-0.06012312
156	0x3d5c3337	0.05375978
157	0x3d4a7de4	0.049436465
158	0xbd4acdeb	-0.049512785
159	0x39c63182	0.0003780239
160	0x3d73ae48	0.05949238
161	0x3c85d076	0.016334753
162	0xbc83fc29	-0.01611145
163	0x3d1786e5	0.03699388
164	0x3d4d0b65	0.050059695
165	0xbd16217d	-0.03665303
166	0x3d9ea452	0.07746185
167	0x3c21c322	0.009873183
168	0x3d23ae08	0.03996089
169	0x3cede8ec	0.02904173
170	0x3c80132f	0.015634147
171	0x3d81a096	0.063294575
172	0x3d2d04aa	0.042240776
173	0x3d4d70ee	0.050156526
174	0xbd0f7ffb	-0.03503416
175	0x3b8e7f57	0.004348676
176	0xbd367d5f	-0.044553157
177	0xbc334c8b	-0.010943542
178	0xbd107d42	-0.035275705
179	0xbc8cbe1f	-0.0171805
180	0x3cff6791	0.031177314
181	0x3d0f3af3	0.034968328
182	0xbc434aee	-0.01191972
183	0xbd6473eb	-0.05577461
184	0xbd047af8	-0.032343835
185	0xbb23320c	-0.0024901656
186	0xbcef8f13	-0.029243028
187	0xbc76b228	-0.015057124
188	0x3ca1ad54	0.01973597
189	0xbd742ecd	-0.059614945
190	0x3bfd8dc3	0.0077378466
191	0x39b5b7fe	0.00034660095
192	0x3d2dec40	0.042461634
193	0x3ab1aeac	0.0013556085
194	0x3cf42e04	0.029807098
195	0xbd566e4f	-0.052351292
196	0x3cd0fbbd	0.025510663
197	0x3c85a361	0.016313257
198	0xbbae2241	-0.005314142
199	0xbbd9b635	-0.006644035
200	0xbd3dc053	-0.046325993
201	0x3bffc5f0	0.0078055784
202	0x3bce27f1	0.0062913825
203	0xbcb7dcd1	-0.02244416
204	0xbc86d9af	-0.016461222
205	0x3bb64f8d	0.0055636824
206	0x3d72dd52	0.0592931
207	0xbc7e7ebc	-0.0155331455
208	0xbcbd7d07	-0.023130907
209	0x3b98b727	0.0046605053
210	0xbccd6efb	-0.025077334
211	0xbd605adb	-0.054774147
212	0x3d04f646	0.032461427
213	0x3cc18b1d	0.023625905
214	0x3d1f1195	0.038835127
215	0x3d839865	0.06425551
216	0xbd6401b9	-0.055665705
217	0x3d14d4c6	0.03633573
218	0xbd09db7f	-0.033656593
219	0x3c5e4fbd	0.013568816
220	0x3cd15186	0.025551569
221	0xbd06f1e4	-0.03294553
222	0x3c92488f	0.017856864
223	0xbcf0bc85	-0.029386768
224	0xbca97ecd	-0.020690346
225	0xbd4d5e12	-0.05013854
226	0xbd93c947	-0.07216125
227	0x3d95e6df	0.07319426
228	0x3d56206b	0.05227701
229	0x3cf82e6c	0.030295573
230	0xbcec3a7c	-0.028836481
231	0xbc8db7e2	-0.017299596
232	0x3cd4c631	0.025973411
233	0xbc2a321f	-0.010387926
234	0x3cdd8564	0.027041145
235	0x3d3c1038	0.045913905
236	0xbd338209	-0.043825183
237	0xbd43076a	-0.047614492
238	0xbb42f88c	-0.0029750196
239	0x3cf613d9	0.030038761
240	0xbc8328d8	-0.016010687
241	0xbd294de8	-0.041334063
242	0x3c92fc64	0.017942615
243	0xbc7ec199	-0.015549087
244	0x3d0c0163	0.03418101
245	0x3ce52ee6	0.027976464
246	0xbcbaf436	-0.022821527
247	0xbba96331	-0.0051692952
248	0xbbd86513	-0.006603846
249	0xbc65e018	-0.014030479
250	0xbb409bc8	-0.0029389728
251	0xbc4939ea	-0.012281874
252	0x3b58646a	0.0033018836
253	0x3c85f73c	0.016353242
254	0xbc916062	-0.017746154
255	0xbbadcd56	-0.005304019

conv1.bias f4 [60]
0	0xbc07a8b7	-0.008279971
1	0x3c089ef6	0.0083386805
2	0x3b49c4ec	0.003078754
3	0x3d0cb13a	0.034348704
4	0xbd670a7c	-0.056406483
5	0xbd3fab6d	-0.046794344
6	0x3b16c1c3	0.0023003675
7	0x3953b8c7	0.00020191363
8	0x3c468a62	0.012117954
9	0xbb520c8e	-0.003205094
10	0x3b0af353	0.0021202161
11	0x3b68cc03	0.003552199
12	0x3be6e6bc	0.0070465486
13	0x3c0311f6	0.007999888
14	0x3d0e8c48	0.03480175
15	0xbca57843	-0.020198947
16	0x3d91f4ab	0.07126745
17	0x3c8736bb	0.01650559
18	0x3ce3ad5b	0.027792623
19	0xbb279269	-0.0025569445
20	0x3cc65711	0.024211438
21	0x3cd0f134	0.02550564
22	0xbbc01caa	-0.005862792
23	0xbb397690	-0.0028299429
24	0xbc29c767	-0.010362483
25	0x3c5bdba6	0.0134190675
26	0xbc3e0816	-0.0115986075
27	0x3badf071	0.005308204
28	0x3d833402	0.06406404
29	0x3c828f2e	0.015937414
30	0x3cac15ce	0.021006491
31	0x3cfa3857	0.030544443
32	0x3ca56a51	0.020192297
33	0x3bca80dd	0.0061799125
34	0x3d3defb3	0.046371173
35	0x3d3eeb87	0.046611335
36	0x3d168715	0.036749918
37	0xbbbf7a8a	-0.005843465
38	0xbc6ab89a	-0.014326239
39	0x3c339c37	0.0109625375
40	0x39aac12b	0.00032568848
41	0xbb8ed711	-0.004359134
42	0xbbe42ceb	-0.0069633625
43	0x3b10002c	0.0021972759
44	0x3ac29d2a	0.0014847864
45	0x3d3cb3c8	0.04606989
46	0xbcb18f01	-0.021674635
47	0x3c9d3822	0.019191805
48	0xbd09d1c5	-0.033647317
49	0x3bca97ae	0.0061826324
50	0xbc0b0aac	-0.008486431
51	0x3b618bdd	0.003441564
52	0xb9da9ab1	-0.00041695454
53	0x3d59471f	0.053046342
54	0x3c967f63	0.01837129
55	0x3bfb6adf	0.007672652
56	0x3b92f0c0	0.004484266
57	0x3cbfb0f6	0.023399811
58	0x3ca533c6	0.020166289
59	0x3d0d0250	0.034426033

conv2_1.weight f4 [20, 60, 3, 3]
0	0x3bfd2f2b	0.00772657
1	0x3cb425f7	0.02199076
2	0xbc207d77	-0.009795538
3	0xbb08b897	-0.0020861977
4	0x3cb91bb6	0.022596221
5	0x3bec60f2	0.007213705
6	0x3b964764	0.004586147
7	0x3c692b9f	0.0142315915
8	0x3c0450a5	0.008075868
9	0x3d0df35d	0.034655917
10	0xbc88115f	-0.016609846
11	0xbd2f181a	-0.042747594
12	0x3cb36508	0.021898761
13	0xbc2a4575	-0.010392536
14	0xbb9c9733	-0.0047787665
15	0xbcea1d0a	-0.0285783
16	0xbbb76d3a	-0.0055977376
17	0x3d390c7a	0.045177914
18	0x3b17457f	0.0023082194
19	0x3bdbfeaa	0.006713708
20	0x3a9e2967	0.0012066782
21	0x3bf03056	0.007329981
22	0x3c182bb7	0.009287766
23	0x3b81d18f	0.003961749
24	0x3a5f2021	0.00085115625
25	0x3abe18a5	0.0014503194
26	0x3b93fd23	0.00451626
27	0xbaa31448	-0.0012441957
28	0xbb833794	-0.004004428
29	0xbb0dfa6f	-0.0021664163
30	0xbbf05565	-0.0073343986
31	0xbbca1897	-0.006167482
32	0xbb2dcaf1	-0.0026518668
33	0xbbb7202d	-0.0055885524
34	0xbb589f1d	-0.0033053823
35	0x3b49af16	0.0030774525
36	0x3bca6a29	0.006177206
37	0x3b3ed162	0.00291165
38	0xbbb1bb55	-0.005423943
39	0x3bb8d342	0.0056404183
40	0x3b67e1ff	0.0035382507
41	0xbbb5679e	-0.005536034
42	0x3b8b1903	0.004244925
43	0x3af2fe30	0.0018538889
44	0xbb94b43e	-0.004538088
45	0xb9c93442	-0.00038376643
46	0xbab7fc9f	-0.0014037079
47	0xbafcb38c	-0.0019279583
48	0x3afea7ab	0.0019428631
49	0x3a7ea830	0.0009714393
50	0xbb09e3d3	-0.0021040335
51	0x3ac6943a	0.0015150376
52	0x3a0d1227	0.0005381428
53	0xbb18471a	-0.002323574
54	0x3baf5ed2	0.0053518796
55	0xbaa0a14a	-0.0012255099
56	0x3ab36691	0.0013687183
57	0x3b9aacb2	0.004720294
58	0x3b9a553b	0.0047098673
59	0xbc013819	-0.00788691
60	0xb5cee70c	-1.541544e-06
61	0x3c592722	0.013253959
62	0xbb48526b	-0.0030566703
63	0x3ac346b9	0.0014898396
64	0xbb00183a	-0.001954569
65	0x3b884584	0.0041586775
66	0xbbb4a416	-0.0055127246
67	0x3b63d02c	0.0034761531
68	0x3bd3dfc7	0.0064658853
69	0xbc17b3ba	-0.009259159
70	0xbae1ab30	-0.0017217156
71	0x3b6d3552	0.0036195111
72	0x3c07ecd7	0.008296213
73	0x3bb82d1a	0.005620611
74	0x3b21af92	0.0024671298
75	0x3c20622a	0.009789029
76	0x3c18f202	0.009335043
77	0x3b0b6bef	0.002127405
78	0x3b0d7842	0.0021586572
79	0x3b1d8926	0.0024038046
80	0xb9b916ab	-0.0003530284
81	0xbc8db360	-0.017297447
82	0x3b2c1e00	0.0026262999
83	0xba801c90	-0.0009774137
84	0x3be6c714	0.007042775
85	0x3bfadfe4	0.0076560844
86	0xbb03db78	-0.0020119827
87	0x3c0c278b	0.00855435
88	0x3c5c70af	0.0134546
89	0x3bcaa1db	0.0061838455
90	0xbc40a277	-0.011757485
91	0x3b82c04a	0.003990208
92	0x3c2382a4	0.009979878
93	0x3c0f00cc	0.008728217
94	0xbadbeabc	-0.001677833
95	0x3af236b2	0.0018479435
96	0x3baed358	0.0053352527
97	0x3ab615d5	0.0013892004
98	0x3b5eadd7	0.0033978128
99	0x3b81310b	0.003942614
100	0xbb40553c	-0.0029347679
101	0xbb26cc47	-0.0025451349
102	0x3b263575	0.0025361453
103	0xbb170fe3	-0.002305024
104	0x398bf764	0.00026696466
105	0xbb92910b	-0.004472857
106	0xbba2abe6	-0.0049643395
107	0xbaa30941	-0.0012438671
108	0x3a59d5e0	0.0008309763
109	0x3bb6cefb	0.005578873
110	0xbad23c21	-0.0016039648
111	0x3b1e13cf	0.0024120694
112	0x3bd4e4a9	0.006496985
113	0xbaa3555c	-0.0012461352
114	0xbb091d06	-0.002092184
115	0x3ada93d5	0.0016676137
116	0x3bcc3b39	0.006232646
117	0xbb6979cc	-0.0035625575
118	0x3b0cb37b	0.0021469283
119	0x3ab4fd2f	0.0013808365
120	0x39d3ab4b	0.0004037268
121	0xbb80a756	-0.003926198
122	0x3ae86adc	0.0017732042
123	0xbbd5e238	-0.0065272115
124	0xbbb24dc3	-0.005441399
125	0xbb43bbc1	-0.0029866549
126	0x3a5bec80	0.0008389428
127	0x3b80f9c9	0.0039360267
128	0xbc36bbdc	-0.011153188
129	0xbc1c2b0a	-0.009531746
130	0x3b04aec3	0.0020245768
131	0xbbdbc8ba	-0.006707278
132	0xbb00bc87	-0.001964362
133	0xbb9926eb	-0.004673829
134	0xbad427a9	-0.0016186136
135	0xbb7af7a6	-0.0038294583
136	0x3b969075	0.0045948573
137	0x3c026deb	0.007960777
138	0x3b300998	0.0026861187
139	0x3c370a27	0.011171854
140	0x3c295970	0.010336265
141	0x3a98d305	0.0011659568
142	0x3c2cb654	0.010541517
143	0x3be8cd01	0.0071045165
144	0xbaed08d2	-0.0018084294
145	0xbb1eb037	-0.002421392
146	0xba467dcf	-0.00075718475
147	0x3b87f812	0.0041494453
148	0xba88bec2	-0.0010432827
149	0xbbf76b68	-0.0075506456
150	0x3b108a09	0.0022054932
151	0x3aa6ef94	0.0012736195
152	0x3b2036d9	0.0024446754
153	0x3bafc4b9	0.0053640273
154	0xba32c06c	-0.0006818834
155	0xbb6d6384	-0.0036222646
156	0xbc03673f	-0.008020221
157	0xbad6c317	-0.0016385046
158	0xbb97f594	-0.0046374295
159	0xbb8fcefd	-0.0043886886
160	0xbbd57f43	-0.006515415
161	0xbba14002	-0.0049209604
162	0x3b54cb2d	0.0032469735
163	0x3822c514	3.8807353e-05
164	0xbb0a209f	-0.0021076573
165	0x3b532e59	0.003222367
166	0xba8b9564	-0.001064938
167	0xbabeecf0	-0.0014566462
168	0x3b95c940	0.00457111
169	0xba7632d0	-0.0009391727
170	0xbb50d10a	-0.0031862878
171	0x3a82ece5	0.0009988813
172	0x3b6745c9	0.0035289398
173	0x3b3577ff	0.0027689931
174	0x3b57ed6c	0.003294791
175	0x3baef4b3	0.005339229
176	0x3c141690	0.009038582
177	0xbac55777	-0.0015055974
178	0x3a1dcc28	0.00060194964
179	0xbaa9520b	-0.0012918127
180	0x3a75eddb	0.00093814515
181	0xbbb2a354	-0.005451599
182	0xbb6d6920	-0.003622599
183	0xbb1d7741	-0.002402738
184	0x395b8111	0.00020933549
185	0xbb63cfe9	-0.0034761375
186	0xbb38a4e8	-0.0028174464
187	0xba0efa86	-0.0005454201
188	0xba89f15a	-0.0010524199
189	0xbc522798	-0.012826823
190	0xbc99f708	-0.018794551
191	0x3c813f65	0.0157773
192	0xbc5f2c39	-0.013621383
193	0xbc126f53	-0.008937675
194	0x3c135bad	0.008994025
195	0xbb1a2504	-0.0023520598
196	0xbc2a3880	-0.010389447
197	0x3bd0668d	0.0063598813
198	0xb86e9ae7	-5.6887886e-05
199	0x3b321b1b	0.00271768
200	0x3b7698be	0.0037627663
201	0xb973ff26	-0.00023269336
202	0x3b9b7f96	0.004745434
203	0x3bd1efd8	0.0064067654
204	0xbaad283a	-0.0013210841
205	0x3ae119a4	0.0017173779
206	0x3b97ac5d	0.0046287016
207	0xbc2e2c62	-0.010630699
208	0xbbaa8deb	-0.005204906
209	0xbbfb5f00	-0.007671237
210	0xb9e2330c	-0.00043144112
211	0x3a04851c	0.0005055235
212	0xbb93ccb9	-0.004510489
213	0xbbc406d3	-0.005982259
214	0x3b973d02	0.004615427
215	0xbb476780	-0.003042668
216	0xbb2090ad	-0.0024500296
217	0xba8f9557	-0.0010954541
218	0x3afe6822	0.0019409696
219	0x3c36d89d	0.011160043
220	0x3ba093a3	0.004900412
221	0xbb402705	-0.0029320132
222	0xbb42323d	-0.0029631995
223	0x3bcd15f6	0.0062587215
224	0x3bedf3dc	0.0072617363
225	0xbb1e7111	-0.002417628
226	0xbb5725f1	-0.0032829011
227	0xbb51fc99	-0.003204143
228	0xbbc73791	-0.006079622
229	0xbb3a12e2	-0.0028392603
230	0xba8fcd13	-0.0010971151
231	0xbb086e93	-0.002081786
232	0xbbac4997	-0.005257796
233	0xbb152f31	-0.0022763724
234	0xbbcba479	-0.006214675
235	0xbbadab75	-0.0052999803
236	0xbb4faacc	-0.0031687496
237	0xbb39c8a3	-0.0028348349
238	0xbaa7cce3	-0.001280215
239	0xba7a2f42	-0.0009543785
240	0xba875bcd	-0.0010327041
241	0x39f40687	0.0004654417
242	0x398e25d4	0.00027112535
243	0x3c752387	0.014962084
244	0x38e26857	0.000107959546
245	0x3cc55d9b	0.024092486
246	0x3bb452fd	0.005503057
247	0x3b878223	0.0041353866
248	0xba301723	-0.0006717315
249	0x3c7abd0f	0.015303864
250	0xbcbfce60	-0.023413837
251	0xb98ed150	-0.000272403
252	0x3b39dc44	0.0028360048
253	0xbaed4cd6	-0.0018104564
254	0xbbf3ea00	-0.0074436665
255	0x3b78c02e	0.0037956345

conv2_1.bias f4 [20]
0	0xbb894c21	-0.0041899835
1	0x3a8c861a	0.0010721118
2	0xbc1ca39a	-0.00956049
3	0x3c31f0a1	0.010860593
4	0xbc06f4df	-0.008237093
5	0xbc1336ce	-0.008985234
6	0x3c00f196	0.007870099
7	0xbc7db986	-0.015486127
8	0x3c9752a4	0.018472023
9	0x3aea91a6	0.001789619
10	0xbb2d627f	-0.0026456413
11	0x3beebb42	0.0072855065
12	0xbc4086c1	-0.011750878
13	0x3b4a466e	0.0030864733
14	0x3bc324bd	0.0059553073
15	0xbccc54a3	-0.024942702
16	0x3c0c3a25	0.008558785
17	0x3c4d422c	0.012527984
18	0xbb941492	-0.0045190537
19	0xba1e04d8	-0.00060279435

conv2_2.weight f4 [20, 60, 5, 5]
0	0x3baecc8f	0.005334444
1	0xba62cdf0	-0.0008651903
2	0xbc483989	-0.012220749
3	0xbc35c843	-0.011095109
4	0xbb5aa5f7	-0.0033363083
5	0xbbafae66	-0.005361366
6	0xbc17b5b3	-0.009259629
7	0xbbc43b0f	-0.0059884856
8	0xbb8f230a	-0.0043681907
9	0x3bcc5c2f	0.006236575
10	0x3c09f5f5	0.008420457
11	0x3b5240d5	0.00320821
12	0x3c1e1288	0.009647973
13	0x3b621a48	0.0034500528
14	0xbb7e6e7f	-0.0038823185
15	0x3bc0b331	0.0058807363
16	0xbb4f1176	-0.00315961
17	0xbb064074	-0.0020485194
18	0x3b5820ee	0.0032978612
19	0x3b0b8ffb	0.0021295536
20	0xbb226fa1	-0.0024785774
21	0x3bca1bd3	0.0061678677
22	0x3bb519b1	0.0055267443
23	0x3ac9d9f9	0.0015400044
24	0x3b3eaba2	0.0029094
25	0x3a9d843f	0.0012017562
26	0xbb14f646	-0.0022729798
27	0x3983ca4f	0.00025137
28	0xbb976b99	-0.004620981
29	0x3988c2cb	0.00026085073
30	0xba983a76	-0.0011614102
31	0xba71ec05	-0.000922859
32	0xbb412b48	-0.002947526
33	0xbab5ba88	-0.0013864795
34	0x3b8fb970	0.0043861195
35	0xbb547713	-0.0032419607
36	0xbb078247	-0.0020677017
37	0x3a30f51f	0.0006750393
38	0x3beb2063	0.0071754917
39	0x3c48ab6b	0.0122479005
40	0xbb689cfa	-0.0035493956
41	0xbc05799b	-0.008146669
42	0xbc1b03f9	-0.009461396
43	0xbc1c5408	-0.009541519
44	0xbbb9493a	-0.0056544812
45	0x3c013f7d	0.007888672
46	0x3b680056	0.003540059
47	0xbaa25e45	-0.0012387714
48	0x3b873cab	0.004127105
49	0x3b7b4918	0.0038343128
50	0xbc113996	-0.008863827
51	0xbbbf5e2b	-0.005840083
52	0xbb59725b	-0.0033179733
53	0xbb425e59	-0.0029658286
54	0x3babbbc9	0.0052408916
55	0xbbfbc6fb	-0.0076836324
56	0xbb4dae61	-0.0031384456
57	0x399386e9	0.0002813854
58	0x3a954dc6	0.0011390976
59	0x3c2816be	0.010259328
60	0xba4339e6	-0.0007447287
61	0x3b9d1adf	0.004794463
62	0x3b91ca19	0.0044491407
63	0x3b367264	0.0027839178
64	0x3beadcde	0.0071674427
65	0xbb636964	-0.003470027
66	0x3bbb1c19	0.0057101366
67	0x3bc2c9dc	0.0059444737
68	0x3b6bf365	0.0036003229
69	0x3b33c70b	0.0027431871
70	0xbb87b9bb	-0.004142014
71	0xb95d920d	-0.0002113061
72	0xbb40bb8d	-0.0029408664
73	0xbbabfccb	-0.005248641
74	0xbaf3c48b	-0.0018598003
75	0xbcbca6af	-0.0230287
76	0xbca4b948	-0.02010788
77	0xbc80660a	-0.015673656
78	0xbc9683f4	-0.018373467
79	0xbcd27bf1	-0.025693865
80	0xbc70dcd6	-0.014701089
81	0xbbc08168	-0.0058748014
82	0xbb7422f0	-0.003725227
83	0xbc84ed9b	-0.01622658
84	0xbcb9fc0d	-0.022703195
85	0x3b2e4a35	0.0026594524
86	0x3c181d4d	0.00928433
87	0x3bbbc874	0.005730683
88	0xbc3020a2	-0.010749968
89	0xbbc7802b	-0.006088277
90	0x3cadaff8	0.021202073
91	0x3c076b20	0.008265287
92	0x3b3b8df4	0.0028618546
93	0x3b173108	0.0023069996
94	0x3c270c02	0.010195734
95	0x3c7140d8	0.014724933
96	0xbb15ea8e	-0.0022875401
97	0xbbfeac33	-0.0077719926
98	0xbb2bce78	-0.0026215594
99	0x3bf20ca8	0.0073867626
100	0xbca3ee94	-0.020011224
101	0xbc7b4b5b	-0.01533779
102	0xbc118a31	-0.008883045
103	0xbbe35ee2	-0.006938801
104	0xbc71bbcb	-0.014754246
105	0xb9ba7cdf	-0.0003556972
106	0xba26fe06	-0.000637025
107	0x3b70e3ce	0.0036756876
108	0x3c4192f5	0.011814822
109	0x3c6ee999	0.014582061
110	0x3b446037	0.0029964575
111	0xbb0dde85	-0.0021647525
112	0xbaae34bc	-0.0013290863
113	0x3c23fbf0	0.010008797
114	0x3ca1717b	0.019707432
115	0xbb02bdb3	-0.0019949495
116	0xbbe8f670	-0.0071094558
117	0xbb96b80f	-0.004599578
118	0x3c7150b0	0.01472871
119	0x3cd64dfd	0.026160235
120	0x3b8248c7	0.003975961
121	0x3bd7d24d	0.006586349
122	0x3c294441	0.010331214
123	0x3cb2d0cb	0.021828076
124	0x3cd13be2	0.02554125
125	0xbc7ebb74	-0.015547622
126	0xbc95659c	-0.018236928
127	0xbcb4778f	-0.022029666
128	0xbcb94b99	-0.022619056
129	0xbc81cd34	-0.015844919
130	0xbbad2699	-0.005284142
131	0x39e79077	0.00044167388
132	0x3b262bcd	0.0025355697
133	0x3b7ae5c5	0.0038283926
134	0x3bec597e	0.0072128167
135	0x3aa4736b	0.0012546604
136	0x3c5fddf0	0.013663754
137	0x3ca28ea7	0.019843413
138	0x3c98d0e5	0.018654296
139	0x3c8ba3d7	0.017045898
140	0xbb7e3e82	-0.0038794582
141	0x3bdfed6a	0.006833722
142	0x3c35aca3	0.011088523
143	0x3bb6313b	0.005560068
144	0x3b46f0de	0.003035597
145	0xbbbc290c	-0.005742198
146	0x3afb4f60	0.0019173436
147	0x3b21df0c	0.0024699597
148	0xbb957552	-0.004561105
149	0xbbc7d5e1	-0.0060984944
150	0x3b936d77	0.004499133
151	0xbac4f228	-0.0015025781
152	0x3baacb99	0.005212259
153	0x3b97f263	0.004637049
154	0x3bad005b	0.0052795834
155	0x3bfb65e8	0.0076720603
156	0x3bb552ec	0.0055335667
157	0x3b8ece69	0.004358102
158	0x3bda804e	0.006668127
159	0x3c2f26d3	0.010690409
160	0x3bff3ead	0.007789454
161	0x3ba28c93	0.0049606054
162	0x3c2c6eb9	0.010524445
163	0x3c6cffcc	0.014465284
164	0x3ca5298c	0.020161413
165	0x3c374eb6	0.0111882
166	0x3be8b393	0.007101485
167	0x3c698210	0.014252201
168	0xbac78fd0	-0.0015225355
169	0xbc002711	-0.007821814
170	0x3bca0e4d	0.0061662556
171	0xbb6db580	-0.0036271513
172	0xbaa27bf8	-0.0012396565
173	0xbb8547a9	-0.0040673804
174	0xbb9dc374	-0.0048145596
175	0xbadc6d3f	-0.0016817226
176	0x3b37cb36	0.0028044707
177	0x3bcd62f4	0.0062678996
178	0x3c109219	0.008823895
179	0x3c2cc861	0.010545821
180	0x3bb4a05f	0.005512282
181	0x3c1b7e7e	0.009490607
182	0x3b8d5dff	0.0043141837
183	0x3b3a9865	0.0028472182
184	0x3bf85c11	0.0075793345
185	0x3baa8e42	0.0052049467
186	0x3bdacd60	0.0066773146
187	0x3abfa79c	0.0014622095
188	0xbc362b3a	-0.011118704
189	0xbb9bcc4c	-0.0047545787
190	0xbb0092a1	-0.0019618648
191	0xbad657ff	-0.0016353129
192	0x3b177698	0.002311146
193	0x3ac64a51	0.0015128349
194	0x3b1f8f85	0.002434702
195	0x3b05d1e0	0.0020419285
196	0xbaf67248	-0.0018802369
197	0xbb631bd1	-0.003465403
198	0xbb7d788f	-0.0038676595
199	0xbb627acd	-0.0034558058
200	0xbb8583c2	-0.0040745446
201	0xbb876a4e	-0.0041325456
202	0xba8587e1	-0.001018759
203	0xbba93318	-0.0051635616
204	0xbc477d89	-0.012175926
205	0xbc1d4687	-0.009599335
206	0xbc4567d6	-0.012048682
207	0xbc58def5	-0.013236751
208	0xbc79ed5a	-0.015254343
209	0xbc53b41f	-0.012921362
210	0xbc4347f1	-0.011919008
211	0xbc8a1cdd	-0.016859466
212	0xbc8f8331	-0.017518612
213	0xbc857384	-0.016290434
214	0xbc19f9e0	-0.009397954
215	0xbc265975	-0.010153164
216	0xbbe391a6	-0.006944853
217	0xba4997f0	-0.0007690182
218	0x3ad1ccbf	0.0016006454
219	0x3b2e6a76	0.0026613749
220	0xbbf50e38	-0.0074785016
221	0xbbea494e	-0.007149852
222	0xbb7e7548	-0.003882723
223	0xbb8560c2	-0.0040703723
224	0xba10310d	-0.0005500473
225	0x3acc5482	0.001558915
226	0x3bea1d42	0.007144601
227	0x3bac00cb	0.005249118
228	0x3bd46f12	0.006482967
229	0x3be8ded1	0.00710664
230	0xbbafb0d7	-0.005361657
231	0x3b70de16	0.0036753467
232	0x3be0d488	0.006861273
233	0x3ad8f122	0.0016551355
234	0xbc00c66b	-0.0078598065
235	0x3aa2f515	0.0012432659
236	0xbb3430f0	-0.002749499
237	0xbbfb958b	-0.007677739
238	0xbb8b585a	-0.0042524757
239	0x374afcab	1.2098967e-05
240	0x3b0fb152	0.002192576
241	0x3aa34428	0.0012456225
242	0xbbc4d544	-0.0060068686
243	0xbb975c27	-0.0046191397
244	0xbb4f1472	-0.003159788
245	0xb9b03de9	-0.00033615463
246	0x396b55b6	0.00022443276
247	0x3a16a904	0.0005747231
248	0x3a09650e	0.00052411936
249	0x3b4222f0	0.0029622875
250	0x3bec8f52	0.0072192336
251	0x3b2a425b	0.0025979492
252	0x3bac52c9	0.005258892
253	0x3b1ff0a6	0.0024404912
254	0xbb5beabb	-0.0033556658
255	0x3aed04c7	0.0018083089

conv2_2.bias f4 [20]
0	0x3c907250	0.017632633
1	0x3c436391	0.011925594
2	0x3a4ebd03	0.00078864413
3	0x393aaed3	0.0001780347
4	0xbd8dc08b	-0.0692149
5	0x3c9e1514	0.01929716
6	0x3be9df46	0.007137212
7	0x3ad14ad9	0.0015967741
8	0xbcba2928	-0.022724703
9	0xba83c32e	-0.0010052675
10	0x3c4da628	0.012551822
11	0x3b17c98d	0.0023160905
12	0xbbeb8562	-0.0071875313
13	0x3b265375	0.0025379334
14	0x3c13fac2	0.009031953
15	0xbc21aa97	-0.009867332
16	0x3c98dd1b	0.018660119
17	0xbb8aa0c3	-0.00423059
18	0xbb838829	-0.0040140343
19	0x3bf50ca4	0.0074783135

conv2_3.weight f4 [20, 60, 7, 7]
0	0x39a0b745	0.00030654125
1	0x3b9a066a	0.0047004716
2	0x3a7f7ac0	0.0009745769
3	0x3ad8b0a4	0.0016532135
4	0xbba732d9	-0.005102497
5	0x3c032fd1	0.008007006
6	0x3be0b364	0.0068573225
7	0x3adfcb03	0.0017074052
8	0x3bb59330	0.0055412278
9	0x3c0147cc	0.007890653
10	0x3be8c1ac	0.0071031656
11	0xbb276ffa	-0.002554892
12	0x397157db	0.0002301628
13	0x3afcde84	0.0019292389
14	0xbb76924e	-0.0037623825
15	0x3b9a565c	0.004710002
16	0x3ba784b4	0.005112255
17	0x3c053cfb	0.008132215
18	0x3a932ef2	0.0011229201
19	0xbb9b82b4	-0.0047458056
20	0x3b93bc78	0.004508551
21	0xbb02e416	-0.0019972376
22	0xb9094614	-0.00013091444
23	0x3a58a8e2	0.00082649116
24	0xbae9ff0e	-0.0017852501
25	0x3bf6271f	0.007511988
26	0xbbc602ec	-0.006042829
27	0x3beec3a3	0.0072865053
28	0xbb49e28c	-0.0030805198
29	0x3c4700c7	0.012146181
30	0x3c341438	0.010991149
31	0x3b90fabd	0.0044244216
32	0x3c256fbd	0.010097441
33	0xbbacb40c	-0.0052704867
34	0xbc1b4a87	-0.009478218
35	0xbb08ee9e	-0.002089418
36	0xbba044a3	-0.0048909946
37	0xbbda1394	-0.006655166
38	0x3bc815f7	0.006106134
39	0x3bc65cbf	0.0060535367
40	0xbbd3a171	-0.0064584543
41	0xbc1e0167	-0.009643889
42	0xbb166483	-0.0022948093
43	0x3a2fbe02	0.00067040336
44	0xbb9acdb7	-0.00472423
45	0x3b40ce14	0.0029419707
46	0xbab2f965	-0.0013654648
47	0xba74dc09	-0.0009340649
48	0xbabd2379	-0.0014430127
49	0xbc1c138e	-0.009526147
50	0x3b5fbb06	0.0034138574
51	0xbbbf71b7	-0.0058424133
52	0x3b1c481c	0.0023846691
53	0x3b97913f	0.004625469
54	0xbadf27c4	-0.0017025401
55	0x3905d126	0.00012761782
56	0xbbafb6f6	-0.005362387
57	0xbc24d5bf	-0.010060727
58	0xbb291a2e	-0.0025802958
59	0x3c107578	0.008817069
60	0x3b9a4047	0.0047073695
61	0xbb2bb17a	-0.0026198314
62	0xbb539a62	-0.0032288064
63	0xbba7e1fb	-0.0051233745
64	0x3bb1297f	0.005406558
65	0xbc4d2172	-0.012520181
66	0x3ba0e1ba	0.004909721
67	0xbbfc5a3c	-0.0077011865
68	0xbc27a2eb	-0.010231714
69	0x3bb48554	0.005509058
70	0x3c0dac82	0.008647086
71	0x3b55c4ec	0.0032618595
72	0xbb39b788	-0.0028338153
73	0x3b33525f	0.002736233
74	0xbc75d495	-0.015004297
75	0xbb590463	-0.0033114187
76	0x3b769f3a	0.0037631528
77	0xb9b11de3	-0.00033782338
78	0x3bacafd1	0.0052699824
79	0xbbed0dfb	-0.0072343326
80	0xbc7bcabd	-0.015368161
81	0x3b1ca577	0.0023902336
82	0xba450f3e	-0.0007517225
83	0xbc48d7e0	-0.0122585
84	0xb996e2a4	-0.0002877909
85	0xbb963eb9	-0.004585114
86	0x3b821f87	0.0039710435
87	0x3bcf1d0c	0.0063206013
88	0x3a730ed8	0.0009271926
89	0xbb886549	-0.0041624648
90	0xbc2e1784	-0.010625724
91	0xbc2939ad	-0.010328692
92	0xba0be5ac	-0.0005336653
93	0x3b0e7560	0.0021737441
94	0xbb9e5828	-0.0048322864
95	0x3c38015d	0.011230794
96	0x3bb0d6dd	0.0053967074
97	0xbb313c15	-0.0027043868
98	0x3bd1aba6	0.006398636
99	0x3bb6505c	0.005563779
100	0x3b39f7b4	0.0028376402
101	0xb9c7c8ff	-0.00038105992
102	0x39c74ce3	0.00038013523
103	0x3b43e0d2	0.0029888642
104	0x3befb981	0.007315815
105	0x3a8f3fd8	0.0010929061
106	0x3b7b5358	0.0038349237
107	0x3b23057c	0.0024875095
108	0xbb1128f8	-0.0022149663
109	0xbaa8e93d	-0.0012886893
110	0x3a3d2e6c	0.0007216695
111	0x3c119429	0.008885422
112	0xbb364863	-0.0027814142
113	0x3b03628a	0.0020047748
114	0x3b834301	0.00400579
115	0x3b1831c9	0.0023223034
116	0xb9da8f26	-0.00041686854
117	0xbb1ca9cd	-0.002390492
118	0x3c0d0e59	0.008609378
119	0xbb33acf0	-0.0027416311
120	0x38819a48	6.1799365e-05
121	0x3b8ddf69	0.004329611
122	0x3b3f0643	0.002914802
123	0xba6c796d	-0.00090207794
124	0xbabae437	-0.0014258687
125	0x3bc63376	0.006048615
126	0x393e329b	0.00018138664
127	0x39459190	0.0001884161
128	0x3b5d2e2a	0.003374944
129	0xb9e49cc8	-0.0004360436
130	0xbb8e863b	-0.0043494976
131	0xbb4a80fb	-0.0030899632
132	0x3a9aeebe	0.0011820418
133	0x3a6500fc	0.00087358034
134	0x39d058ee	0.0003973911
135	0x3b322c2d	0.0027186975
136	0xba0e5d53	-0.00054307765
137	0xbb8ba551	-0.0042616506
138	0xbb92b756	-0.0044774218
139	0x3a315f0c	0.0006766177
140	0x3b7f675c	0.003897152
141	0x3b45d556	0.0030186973
142	0x3aa41e0b	0.001252116
143	0xba5b68e8	-0.0008369819
144	0xbb21c21a	-0.0024682344
145	0xbb997cad	-0.004684052
146	0x3a627119	0.00086380687
147	0xbb885655	-0.004160682
148	0x3aec744c	0.001804003
149	0x3b17a70c	0.002314034
150	0x3b75cee9	0.0037507361
151	0x3bc05d9f	0.0058705355
152	0x3a3087bd	0.0006734094
153	0x3a9c1928	0.0011909353
154	0x3b8fc44c	0.004387414
155	0x3bcc598d	0.006236261
156	0xb9db5a88	-0.00041838386
157	0xbabfc3b8	-0.0014630472
158	0x3b5a724b	0.0033332284
159	0xb84d591b	-4.8958795e-05
160	0xba170f22	-0.0005762448
161	0x3c3a3649	0.011365482
162	0x3bd62443	0.0065350845
163	0xbb67403e	-0.0035286094
164	0xba5e2b21	-0.00084750546
165	0x3bb10dfb	0.005403278
166	0x3b6a9ee6	0.0035800277
167	0xb9c216e8	-0.0003701963
168	0x3b945d26	0.0045277057
169	0xbb813ce4	-0.0039440263
170	0xbc0aabb2	-0.008463787
171	0xba939789	-0.0011260371
172	0x3b68686a	0.0035462626
173	0x3b85ec28	0.00408699
174	0xba31cf5c	-0.0006782913
175	0x3ae0837e	0.0017129031
176	0xbbd4b4a1	-0.006491259
177	0xbbd5f6c9	-0.006529663
178	0xba467a34	-0.000757131
179	0x3a152953	0.0005690057
180	0x3a254872	0.00063050457
181	0xbbecd955	-0.0072280564
182	0x3b9a4cfd	0.0047088847
183	0xbb1faa77	-0.002436308
184	0xbb436fdd	-0.0029821314
185	0x3ad932bf	0.001657091
186	0x3b2e45cd	0.0026591897
187	0xb9a96a24	-0.00032313273
188	0xbc598398	-0.013276003
189	0x3cb52fcf	0.022117523
190	0x3c790c39	0.015200668
191	0x3c633ae6	0.013869023
192	0x3c8b6916	0.017017882
193	0x3c8fe79c	0.017566495
194	0x3c2e91a3	0.01065484
195	0xbc09532f	-0.008381649
196	0x3b49267d	0.0030693107
197	0x3c4c5080	0.012470365
198	0x3bc00d57	0.0058609652
199	0x3b52c9a2	0.003216364
200	0x3b5a4a32	0.0033308384
201	0x3a3e39f0	0.0007256558
202	0x3c5e2d76	0.013560643
203	0x3afe8513	0.0019418321
204	0x3c14b92a	0.00907735
205	0x3b2c28b1	0.002626937
206	0x3aedd09c	0.0018143835
207	0x3b3af67e	0.0028528268
208	0xba397e59	-0.0007076017
209	0x3c837c04	0.016050346
210	0xb9f29dcc	-0.00046275405
211	0x3c08c72a	0.008348266
212	0x399a993b	0.00029487335
213	0xba2a3bab	-0.00064938766
214	0x3aeee39d	0.0018225793
215	0xbae76aec	-0.0017655767
216	0x3c9f0545	0.019411692
217	0xb92109f0	-0.00015357859
218	0x3c194d95	0.009356876
219	0x3a9eee99	0.0012125551
220	0xb99e4b51	-0.00030192223
221	0x3b4ee012	0.0031566662
222	0xbac168d8	-0.0014755977
223	0x3c903c67	0.017606927
224	0x3b02fc5d	0.0019986846
225	0x3c1c86a4	0.009553585
226	0x3b5946c7	0.003315376
227	0x3b1df73f	0.002410367
228	0x3b84c556	0.0040518446
229	0x38df1e6f	0.00010639137
230	0x3c6eda9a	0.014578486
231	0x3a96f6a7	0.00115176
232	0x3c118b30	0.008883283
233	0x3b9638bc	0.0045844
234	0x3b667027	0.0035162063
235	0x3b6e1dc6	0.0036333664
236	0x3b48e9de	0.0030656974
237	0x3c661668	0.014043428
238	0xbbab9b37	-0.005237009
239	0x3baad8b6	0.0052138222
240	0x3b9a537a	0.004709658
241	0x3b4058e2	0.0029349853
242	0x3b24bff8	0.0025138836
243	0x3ba5c062	0.005058334
244	0x3c7188e6	0.014742112
245	0xbc260ecc	-0.010135364
246	0xbade6bb6	-0.0016969356
247	0x3c2ed85d	0.010671702
248	0x3c7c9e7c	0.015418645
249	0x3c31773b	0.010831649
250	0x3b256c9b	0.0025241736
251	0x3c584c2d	0.0132017555
252	0xb9124000	-0.00013947487
253	0x3aaeaa7f	0.0013325958
254	0x3baf0725	0.005341428
255	0x39a1ba62	0.0003084718

conv2_3.bias f4 [20]
0	0xbbd7188d	-0.006564206
1	0x3b57fff8	0.0032958966
2	0x3c8293ff	0.01593971
3	0x3b61419d	0.0034371384
4	0x3afd82ec	0.0019341386
5	0x3c6e9691	0.014562265
6	0x3b303533	0.0026887178
7	0xbab9dd91	-0.0014180412
8	0xbc7f6165	-0.0155871855
9	0x3bed4aa4	0.007241564
10	0xbc027d59	-0.0079644555
11	0xbaf6633b	-0.0018797884
12	0x3afd26bc	0.0019313912
13	0xbc46156b	-0.012090067
14	0x3c211026	0.00983051
15	0x3ba3a61f	0.0049941684
16	0x3b35fe23	0.0027769885
17	0x3c50d3f1	0.012745843
18	0x398dcbf7	0.0002704558
19	0x3c7e9ae9	0.015539863

conv3.weight f4 [30, 60, 3, 3]
0	0x39c11f68	0.00036835228
1	0x3c2f9523	0.010716709
2	0x3b05c8d7	0.00204139
3	0x3b9654c3	0.004587741
4	0x3cb7c18f	0.022431163
5	0x3c601548	0.013676949
6	0xbb007538	-0.0019601118
7	0x3c03496b	0.00801311
8	0x3bec736e	0.0072159087
9	0x3b921238	0.0044577383
10	0x3b93ef24	0.004514592
11	0xbb23e8fd	-0.0025010698
12	0xbbbe9420	-0.0058159977
13	0xbc1f55d0	-0.009725049
14	0xbc37a315	-0.011208315
15	0x3abe7475	0.0014530557
16	0x3b98e497	0.004665922
17	0x3b0f6565	0.0021880504
18	0x3c3b5117	0.011432908
19	0x3c417ec5	0.011810009
20	0xbc2f433c	-0.010697182
21	0x3c807155	0.01567904
22	0x3c7a1a6f	0.015265091
23	0xbb82f2a2	-0.0039962092
24	0x3ac9585a	0.0015361414
25	0x3bbff686	0.0058582453
26	0x3c267000	0.010158539
27	0xbc432cee	-0.011912568
28	0xbc7a7bb3	-0.015288281
29	0xbbd740d2	-0.0065690065
30	0xbbdd5cc8	-0.006755445
31	0xbb870da8	-0.004121501
32	0xba88d835	-0.0010440411
33	0xbcdb0a3f	-0.026738284
34	0xbcba6490	-0.02275303
35	0xbc619d97	-0.0137704825
36	0x3bc9e00d	0.006160742
37	0x3c87e4e8	0.016588643
38	0x3c60505c	0.013691034
39	0x3bd3cc88	0.006463591
40	0x3c949e3c	0.018141858
41	0x3c7c6240	0.015404284
42	0x3b9ebba3	0.0048441454
43	0x3c82d7bc	0.01597201
44	0x3c6fa040	0.014625609
45	0x3c7cb39c	0.015423682
46	0x3c3bb2f3	0.011456239
47	0xbc25f95b	-0.010130252
48	0x3bfd86eb	0.0077370307
49	0x3bc5081d	0.00601293
50	0xbc82a8ec	-0.015949689
51	0xbc992fb4	-0.018699504
52	0xbcaa569e	-0.020793255
53	0xbd34cc00	-0.044139862
54	0xbc785dc8	-0.015159078
55	0xbb99528d	-0.0046790303
56	0xbc80bf63	-0.01571626
57	0x3bce479e	0.0062951585
58	0x3c475727	0.012166775
59	0xbc6c8ae2	-0.014437409
60	0xbc8b7661	-0.01702422
61	0xbbcc2527	-0.006230015
62	0x3c1b7385	0.009487991
63	0xb90451e9	-0.00012619015
64	0xbbee251d	-0.007267608
65	0xbc993658	-0.018702671
66	0x3b1b8976	0.0023733056
67	0x3c29f718	0.010373853
68	0x3b571490	0.0032818653
69	0xbbdc6293	-0.006725618
70	0xbc8351e0	-0.016030252
71	0xbc5bc54b	-0.0134137375
72	0x3c11c396	0.008896729
73	0x3c7a5cdb	0.0152809275
74	0x3a05904e	0.00050950504
75	0x3bfe2d11	0.007756837
76	0x3cb5f607	0.022212042
77	0xbb634979	-0.0034681244
78	0xbb32dcae	-0.002729218
79	0x3ab543c3	0.0013829399
80	0xbd2aaa4b	-0.04166631
81	0xbc8ca7ae	-0.0171698
82	0xbc6112e6	-0.013737416
83	0xbc0846f0	-0.008317694
84	0xbb014e17	-0.0019730383
85	0x3b328705	0.0027241122
86	0x3b0a8dcf	0.0021141653
87	0x3ba795c0	0.005114287
88	0x3c0a9ea1	0.008460672
89	0x3b4a6cf7	0.0030887702
90	0xbbc3814e	-0.005966342
91	0xbc2d4322	-0.010575088
92	0x3c1298ee	0.008947594
93	0x3aff80cc	0.001949334
94	0x3c223826	0.009901082
95	0x3be14936	0.0068751825
96	0xbb97d516	-0.004633556
97	0xbba3d989	-0.0050002974
98	0xbacf065c	-0.0015794742
99	0x3c2ef126	0.010677611
100	0x3b14c7f0	0.002270218
101	0xbc99def6	-0.018783074
102	0x3b0714c4	0.0020611743
103	0xbcc1da95	-0.023663798
104	0x3c8f1453	0.017465746
105	0x3b0c726e	0.002143051
106	0x3c559144	0.013035122
107	0xbaaa6739	-0.0013000733
108	0xbca44305	-0.020051489
109	0xbb6c76de	-0.0036081593
110	0xbd0cd941	-0.034386877
111	0xbc0f6b2c	-0.008753579
112	0x3c6f51e8	0.01460693
113	0xbd230a22	-0.039804585
114	0xbc30e412	-0.010796564
115	0xbc4cebca	-0.012507388
116	0x3a8b881d	0.0010645423
117	0x3c1ee063	0.009697053
118	0x3cdd063a	0.026980508
119	0x3c343087	0.010997898
120	0x3a82184e	0.0009925456
121	0x3c96fa55	0.018429914
122	0x3bd7f20d	0.006590134
123	0x3b79308d	0.0038023323
124	0x3bd166c7	0.006390426
125	0x3b5ce30a	0.0033704662
126	0xbc84c30d	-0.016206289
127	0x3beffd51	0.007323899
128	0xbcea1a94	-0.028577127
129	0xbd4d425e	-0.05011212
130	0xba41b715	-0.0007389647
131	0xbc86fb44	-0.016477235
132	0xbc259ed6	-0.01010867
133	0xba64c7da	-0.000872729
134	0xbd382231	-0.044954482
135	0x3ca28425	0.019838402
136	0x3cac37c0	0.021022677
137	0x3924806f	0.00015688104
138	0x3c5d0fae	0.013492508
139	0x3cc87986	0.02447201
140	0x3aaa469b	0.0012991013
141	0x3c0788f8	0.008272402
142	0x3c6a2b7c	0.014292594
143	0xbc536c97	-0.012904308
144	0x3ac6c380	0.0015164465
145	0xba1c1282	-0.00059536856
146	0xbbe725dd	-0.007054074
147	0x3a5ac896	0.00083459297
148	0x3bed2b6a	0.0072378414
149	0xbc88aedc	-0.016684942
150	0x3ba8fdc5	0.005157205
151	0x3b0e513a	0.0021715895
152	0xbcbd4691	-0.023104938
153	0xbb3a9dad	-0.002847533
154	0x3b44416b	0.0029946219
155	0xbc594c8e	-0.013262881
156	0xbc848982	-0.01617885
157	0xbc15b7b4	-0.0091380365
158	0xbc17329f	-0.009228378
159	0xbc6a5d34	-0.014304448
160	0xbc17880a	-0.009248743
161	0xbc40425e	-0.011734573
162	0x3bf1c4fe	0.0073782196
163	0x3c649024	0.013950381
164	0x3c51577e	0.012777207
165	0x3c9d4374	0.019197203
166	0x3c7b33bb	0.015332158
167	0x3c4b36a9	0.012403169
168	0x3bf73940	0.0075446665
169	0x3ca7011b	0.02038627
170	0x3cdd108c	0.02698543
171	0xbc473b8a	-0.012160191
172	0xbbfe558d	-0.0077616633
173	0xbaf2e9d8	-0.0018532826
174	0x3c356d47	0.011073417
175	0x3c985d75	0.018599251
176	0x3ca3710f	0.019951371
177	0x3b5ded9e	0.0033863555
178	0x3b3c63e6	0.0028746068
179	0x3b845645	0.0040386044
180	0xbc808693	-0.01568917
181	0xbb044fb5	-0.002018911
182	0xbccfd942	-0.025372151
183	0xbbbb95b9	-0.0057246354
184	0xbaa111ed	-0.0012288667
185	0xbc067f18	-0.008209012
186	0xbb973669	-0.0046146405
187	0xbb4182a2	-0.0029527326
188	0xbc00a210	-0.007851139
189	0xbc3fc6b8	-0.011705093
190	0xbbf3bc4f	-0.0074382196
191	0xbc21f872	-0.009885894
192	0xbba94354	-0.005165497
193	0x3a1122be	0.0005536488
194	0xbbc4fb31	-0.0060113897
195	0xbc25ac43	-0.010111871
196	0xbc0646c8	-0.0081955865
197	0xbc053a44	-0.008131567
198	0xbc5ed24a	-0.0135999415
199	0xbcd098bf	-0.02546346
200	0xbd4ec30c	-0.05047898
201	0x3c05e0eb	0.0081713
202	0xbc7d803f	-0.015472471
203	0xbc8c7174	-0.017143942
204	0xbc75ed18	-0.015010141
205	0xbce0ce02	-0.027441982
206	0xbd053e62	-0.032530196
207	0x3c12a24d	0.008949828
208	0x3a9074af	0.0011021103
209	0x3c2a9419	0.010411286
210	0x3c2d6057	0.010582051
211	0x3b8a5ba3	0.0042223497
212	0x3c17a96f	0.009256705
213	0x3c2f05db	0.010682548
214	0x3acd5b21	0.0015667417
215	0x3b5c324f	0.0033599322
216	0xbc946c22	-0.018117968
217	0x3bf7eaa0	0.0075658113
218	0xbc7eb7c6	-0.015546745
219	0x3cf1b65e	0.029505905
220	0x3d626b43	0.055278074
221	0xbc241bc0	-0.010016382
222	0xbcb8a0c6	-0.0225376
223	0xbbef3f6c	-0.0073012616
224	0xbc12b5a2	-0.008954437
225	0xbbe8f797	-0.007109593
226	0xbc0c8027	-0.008575476
227	0x3b2796ac	0.0025571985
228	0x3b6f5eee	0.0036525088
229	0x3c46fc1b	0.012145068
230	0x3caa960e	0.020823505
231	0x3c179279	0.00925123
232	0xba2c963d	-0.00065836665
233	0x3bd5f962	0.006529973
234	0x39f41d06	0.0004656093
235	0xbc1f1c99	-0.009711408
236	0xbb2383fb	-0.0024950493
237	0x3c4eb567	0.012616492
238	0x3ca6901d	0.02033239
239	0x3c335a5f	0.010946839
240	0x3c0108bc	0.007875618
241	0x3c316f7a	0.010829801
242	0x3b7eef17	0.0038899833
243	0xba59c157	-0.0008306703
244	0xbb57a903	-0.0032907135
245	0xbafaf229	-0.0019145656
246	0xbc1a7c04	-0.009428982
247	0xbb7a79dd	-0.0038219609
248	0xbc880a1c	-0.016606383
249	0xbb1808fb	-0.0023198712
250	0x3a0e1adb	0.0005420872
251	0xbbc015e0	-0.0058619827
252	0xbc5d347f	-0.013501286
253	0xbc99fc51	-0.018797072
254	0xbcb223d9	-0.02174561
255	0xbbf96422	-0.0076108137

conv3.bias f4 [30]
0	0x3cf78294	0.030213632
1	0x3b706c7f	0.0036685762
2	0x3be38728	0.006943602
3	0x3ba1530d	0.0049232305
4	0x3a909ea4	0.0011033607
5	0x3b78d2a2	0.0037967344
6	0x3bc454f2	0.0059915716
7	0x3b116619	0.00221861
8	0x3bf57009	0.0074901623
9	0x3c523471	0.012829886
10	0x3c8053ad	0.0156649
11	0x3c8560ff	0.016281603
12	0x3b942306	0.0045207767
13	0xbb083578	-0.0020783823
14	0xbbdde632	-0.006771826
15	0x3ba97ff3	0.0051727234
16	0x3c6177ce	0.013761474
17	0x3cb1b08b	0.021690628
18	0x3b8a9444	0.0042291004
19	0x3c92447c	0.017854922
20	0x3c898cc6	0.016790759
21	0x39aabf96	0.0003256767
22	0xbc18e622	-0.009332212
23	0x3b80a729	0.003926177
24	0x3c1a83a6	0.0094308015
25	0xbb4acf3d	-0.0030946278
26	0x3b8c77b9	0.004286733
27	0x3c5df396	0.013546845
28	0x3c4f17f7	0.012639991
29	0x3c1da75a	0.009622419

conv4_1.weight f4 [10, 30, 3, 3]
0	0xbbd5d4db	-0.0065256185
1	0xbbe34d3f	-0.0069366987
2	0x3c82fecf	0.015990643
3	0x3c08073a	0.008302504
4	0x3d39bab2	0.045344062
5	0x3d01f0d3	0.03172381
6	0x3a7f8840	0.0009747781
7	0x39b6cb35	0.00034865146
8	0xbb08a224	-0.0020848596
9	0xbba412bc	-0.005007116
10	0x3bb6382b	0.005560895
11	0x3c1b8f51	0.0094946185
12	0x3b9361b6	0.004497732
13	0x3c4d3bd4	0.012526471
14	0x3c27a09d	0.010231164
15	0x3c0eaf88	0.008708842
16	0x3c33e6de	0.010980336
17	0x3c1d55c9	0.009602972
18	0x3c3a5839	0.011373573
19	0x3c89ed9f	0.01683694
20	0x3c6d2847	0.014474935
21	0x3c0b2666	0.008493042
22	0x3c3abe52	0.011397915
23	0x3c928616	0.017886203
24	0x3be9411d	0.007118358
25	0x3c089dd5	0.008338411
26	0x3c425f92	0.011863606
27	0xbc94ed8d	-0.01817968
28	0xbc81c577	-0.015841229
29	0xbc811c05	-0.015760431
30	0xbc58a46e	-0.013222797
31	0xbbb05094	-0.0053806994
32	0xbc44ee94	-0.012019772
33	0xbbb10747	-0.005402479
34	0xb9e69f07	-0.00043987503
35	0xbc3ba3d7	-0.011452637
36	0xbd754b17	-0.059886064
37	0xbd07a54e	-0.03311663
38	0xbcc57276	-0.02410243
39	0xbda5910b	-0.080843054
40	0xbd558122	-0.052125104
41	0xbd90e3d5	-0.070747055
42	0xbdd150a2	-0.102204576
43	0xbdae88fe	-0.08522223
44	0xbdc60219	-0.09668369
45	0xbc60d565	-0.013722752
46	0xbc6e46af	-0.0145432195
47	0xbc073b70	-0.008253917
48	0xbc75ebb1	-0.0150098065
49	0xbc7ef2dd	-0.015560833
50	0xbbcf95c5	-0.0063349926
51	0xbc2c21ef	-0.010506137
52	0xbc43c3d8	-0.011948548
53	0xbb729297	-0.0037013644
54	0xbbb04605	-0.0053794407
55	0x3a7472d5	0.00093249726
56	0x3add378f	0.001687752
57	0xbb269342	-0.0025417362
58	0x3bfa52d5	0.007639269
59	0x3a9ae216	0.0011816646
60	0x3bba1d22	0.0056797424
61	0x3b8cfd75	0.0043026754
62	0x3aef8e7f	0.001827672
63	0x3c4d2866	0.012521839
64	0x3c4a0cd0	0.012332156
65	0x3bab02a4	0.0052188206
66	0x3c921d6e	0.017836299
67	0x3c84a31b	0.016191056
68	0x3b469d44	0.003030614
69	0x3c249ddf	0.010047405
70	0x3bf99d46	0.0076176254
71	0x3ae123fc	0.0017176862
72	0xbbfaebc8	-0.007657502
73	0xbb013454	-0.0019715028
74	0xbb952323	-0.0045513078
75	0xbc8a100c	-0.016853355
76	0x3b656516	0.003500288
77	0xbc2d0458	-0.010560118
78	0xbc8fbaa4	-0.017545052
79	0xbc2e6827	-0.010644949
80	0xbca9b4e5	-0.02071614
81	0xbc0a405a	-0.008438194
82	0xbb9eb467	-0.004843283
83	0xbc72cf07	-0.014819867
84	0xbac829fd	-0.0015271303
85	0x3c3ca36e	0.011513574
86	0xbcbfc658	-0.023410007
87	0xba0de739	-0.0005413178
88	0xbbd4b04a	-0.006490742
89	0xbcdacc2a	-0.026708681
90	0xbb948c5a	-0.004533333
91	0xbc41bb6d	-0.011824471
92	0xb9b4b7ec	-0.00034469308
93	0x3a129d6d	0.0005592916
94	0x3d0f59dc	0.034997806
95	0xbc95e6ee	-0.018298592
96	0x3bb6b6f3	0.0055760085
97	0xbc74a604	-0.014932159
98	0xbcca208e	-0.024673726
99	0xb9ba7bc9	-0.00035568912
100	0x3a7efa74	0.00097266515
101	0xbbe3860b	-0.0069434694
102	0x3bab28a5	0.005223351
103	0x3b8e1230	0.004335664
104	0xbc4fcdd0	-0.012683347
105	0x3bd1a681	0.0063980226
106	0x3bfd47bb	0.007729498
107	0xbc21f800	-0.009885788
108	0x3d5061a8	0.050874382
109	0x3d556c9c	0.05210553
110	0x3d154a3e	0.036447756
111	0x3d6d3a9b	0.05791722
112	0x3d908ea7	0.07058459
113	0x3d3152b8	0.043291777
114	0x3d6bc7d9	0.057563636
115	0x3d9a50b0	0.07534921
116	0x3d274bd5	0.040843803
117	0x3c882b9b	0.016622355
118	0x3c911339	0.017709361
119	0x3c495db3	0.012290406
120	0x3c9fadc7	0.019492043
121	0x3cd40cd0	0.025885016
122	0x3c5f19d2	0.013616996
123	0x3c06258b	0.008187662
124	0x3bcd5f6f	0.00626748
125	0x3b51ab6e	0.003199305
126	0x3b4068fc	0.002935945
127	0xbb620499	-0.0034487604
128	0xbcd2beae	-0.025725689
129	0x3d65357d	0.055959214
130	0x3d38d22b	0.045122307
131	0x3c6f3dcd	0.014602137
132	0x3dd9010e	0.10595904
133	0x3dbb0d17	0.09133356
134	0x3d198750	0.03748256
135	0xbc798e4a	-0.015231678
136	0xbc2042e1	-0.00978157
137	0xbbe22d10	-0.0069023445
138	0xbc087d32	-0.00833063
139	0xb8a5fa1b	-7.914399e-05
140	0xbc03d932	-0.008047389
141	0xbbbfe952	-0.0058566714
142	0xbb6c2243	-0.0036031164
143	0xbc3ef383	-0.011654737
144	0xbd11d2d3	-0.03560145
145	0xbc833a22	-0.01601893
146	0xbcf69b07	-0.03010322
147	0xbc7740c7	-0.015091128
148	0x3d1221af	0.035676654
149	0xbcd10ae5	-0.02551789
150	0xbc83560b	-0.01603224
151	0x3b00ba9e	0.0019642483
152	0xbd1221a8	-0.03567663
153	0x3c59fb73	0.013304579
154	0x3c03a31d	0.008034495
155	0x3c80ad83	0.015707737
156	0xbae5d3d5	-0.0017534444
157	0x3c6f0b77	0.014590136
158	0x3c0f9946	0.008764571
159	0xbb064b0f	-0.0020491516
160	0xbb462ed8	-0.0030240323
161	0x3b343fcb	0.0027503844
162	0xbbefdcc0	-0.0073200166
163	0xbc1270d1	-0.00893803
164	0xbc75de42	-0.015006604
165	0xbc2a9e83	-0.010413769
166	0xbc40aa2f	-0.011759325
167	0xbc85d9d7	-0.016339226
168	0xbc6e7f17	-0.014556668
169	0xbc8d66a7	-0.017260863
170	0xbca71b6e	-0.020398822
171	0x3b8278e4	0.0039816964
172	0xbc46132b	-0.012089531
173	0xbc80d39b	-0.015725901
174	0x3c76cbc4	0.01506323
175	0xbc649f18	-0.0139539465
176	0x3c3cbfe0	0.011520356
177	0xbc2048d4	-0.009782989
178	0xba857109	-0.0010180782
179	0xbbec5b2f	-0.0072130184
180	0xbc72f84a	-0.014829705
181	0xbc52a7ff	-0.012857436
182	0xbcb35372	-0.021890376
183	0xbc794971	-0.015215264
184	0xb946a9bb	-0.00018945981
185	0xbce337ac	-0.027736507
186	0x3bcdd5f7	0.00628161
187	0x3b8bfd18	0.0042721145
188	0xbc7bc8f3	-0.015367734
189	0x3c0557f4	0.008138645
190	0x3b82ef47	0.0039958092
191	0xba3256db	-0.00068031036
192	0x39b6bdfb	0.00034855292
193	0x3b03d033	0.002011311
194	0xbbf3488d	-0.00742442
195	0xbaeeef88	-0.0018229345
196	0xbb680564	-0.0035403604
197	0xbc6036e0	-0.013684958
198	0x3d8f99c8	0.07011753
199	0x3da2202d	0.07916293
200	0x3d8de524	0.06928471
201	0x3bc8fdfb	0.0061337925
202	0x3c91b904	0.017788418
203	0xbab1c995	-0.0013564104
204	0xbd122fa2	-0.035689957
205	0xbcae0924	-0.021244593
206	0xbcde0fe7	-0.027107192
207	0xbb86b8ae	-0.004111371
208	0xbbe42f3c	-0.0069636386
209	0xbc36a189	-0.011146911
210	0x3b75317f	0.0037413535
211	0xbb86e423	-0.0041165515
212	0xbc63f1e2	-0.01391265
213	0xb8a2e561	-7.767487e-05
214	0xbc305d44	-0.010764424
215	0xbc6cc5d1	-0.01445146
216	0x3c4d3114	0.012523908
217	0x3c5a3d11	0.013320223
218	0x39eafe36	0.0004482136
219	0x3c59f6f2	0.013303505
220	0x3c8ec121	0.017426075
221	0xbc2fc5f8	-0.010728352
222	0x3c2ab9d2	0.01042028
223	0x39037651	0.0001253721
224	0xbc1ded57	-0.009639106
225	0x3d1121c5	0.035432596
226	0x3d00b6e5	0.03142442
227	0x3c68dceb	0.014212827
228	0x3d23ee34	0.04002209
229	0x3d2b3c03	0.04180528
230	0xbb13da67	-0.0022560598
231	0x3ceec6fd	0.02914762
232	0x3c919d81	0.017775299
233	0xbc01921c	-0.00790837
234	0xb992ad2a	-0.00027976307
235	0x3b375a3c	0.0027977368
236	0xbbb67025	-0.005567568
237	0x3c13b85f	0.009016125
238	0x3c50a386	0.0127342995
239	0xbc6e7eb7	-0.014556578
240	0x3be60a85	0.007020297
241	0x3bad1f59	0.005283278
242	0xbb4aa6ee	-0.0030922252
243	0x3a2fcec2	0.00067065295
244	0xbc0b0dce	-0.008487178
245	0x3c67d238	0.014149241
246	0x3bafbf7e	0.005363404
247	0x3c1b8581	0.009492279
248	0x3c217ede	0.009856908
249	0x3d479d4d	0.048733998
250	0x3d4bba59	0.04973826
251	0x3d30f759	0.04320464
252	0x3c89ac54	0.016805805
253	0x3c4f7755	0.012662728
254	0x3b50f934	0.0031886818
255	0x3c43b0bc	0.011943992

conv4_1.bias f4 [10]
0	0x3c307161	0.010769219
1	0x3b404216	0.0029336265
2	0xb8aea784	-8.328169e-05
3	0x3adf4cb8	0.0017036414
4	0x3b30f060	0.0026998743
5	0xbadf9eed	-0.0017060913
6	0xbad7e67f	-0.0016471891
7	0x3a111fdf	0.000553606
8	0x3b9fb5a7	0.0048739496
9	0x3c070c46	0.008242672
