01-DL-toolbox(Pytorch)/UDL/pretrained-model/QB/panet.pth (torch, 321119 bytes, 38 tensors)

deconv.weight f4 [4, 4, 8, 8]
-0.06399443 -0.121862784 -0.52998924 -0.39367312 -0.5416118 0.36186936 0.21081941 0.40553364
-0.034301687 -0.1671019 0.027277112 -0.1076916 0.13532291 0.045754656 -0.009860292 -0.17066398
-0.011268849 0.10405584 0.23698711 0.26140043 -0.06267963 -0.1803074 -0.29280797 -0.38657352
0.07730174 0.10580862 0.70686954 0.5926026 0.47062942 0.24994941 -0.081469245 -0.108943954
-0.078363135 0.44789642 0.41310486 0.9629664 0.24573866 0.26491198 -0.39103082 0.2503098
0.07153107 -0.2562449 0.68219286 0.5848345 0.40178546 0.103302665 0.170284 0.020091036
0.14357491 0.06810483 0.069799826 0.4207657 0.64563584 0.5284448 0.42678043 -0.3792929
0.11228667 -0.03334946 0.17214471 0.23775674 0.09366011 0.22594084 -0.051982276 0.3329642
-0.37222677 -0.28263572 -0.2743674 0.030876106 0.042004995 -0.14494307 -0.040461775 -0.3189042
-0.108213365 -0.08644525 -0.022918064 -0.13519336 0.00417899 0.017960222 0.25629067 0.01212556
0.13610053 0.23684551 0.5256058 0.45650414 0.16602372 0.35566255 -0.19900994 0.18349652
0.47249952 0.1707952 0.3104265 0.5480203 -0.020684002 0.17392169 -0.32610646 -0.42523715
0.538535 0.23404028 0.39029258 0.3037202 -0.048244018 -0.054187953 -0.43478623 -0.11170395
0.42889583 0.06490484 0.29518366 0.1006899 -0.017578127 -0.27705818 -0.10672448 0.0014886975
0.054138783 0.012413924 -0.16574353 -0.36891276 -0.44450393 -0.5878276 -0.22176348 0.24811345
-0.28092545 -0.087324366 -0.12309873 -0.21046872 -0.13749032 0.2327212 0.030230207 -0.03342154
-0.029705321 0.20082125 0.57461065 0.748101 1.0331509 0.47439623 0.05364486 -0.39145157
-0.13788825 -0.075029634 0.17489006 0.3717234 0.052017827 0.023087008 -0.2670248 -0.10320226
0.09784727 -0.4865689 -0.97827065 -0.37984508 -0.06537548 -0.32661453 0.33267555 -0.07082474
-0.448897 -0.72961986 -2.0410285 -1.1118937 -1.3702441 -0.44489583 0.58269984 0.6197428
0.52428496 -0.961925 -1.6880604 -1.7962532 -0.7256798 -0.7060755 1.1842071 1.1804246
0.41757372 -0.9248921 -1.6306181 -1.5656294 -1.0378684 -0.020891264 0.4691834 -0.27916056
0.24905802 -0.20445864 -0.3484709 -0.3135151 -0.059374038 0.121610805 -0.120042615 0.15745081
0.23935938 0.10143347 0.07673826 0.36735153 -0.024347838 -0.4765151 -0.26879975 -0.3554914
0.06594775 -0.57457215 -0.5978994 -0.3836545 -0.1939126 -0.3366135 0.27549326 0.062707715
-0.056754984 0.10521415 0.08183941 -0.07964911 0.41412264 0.033104435 -0.023213854 -0.25517094
-0.25053886 0.5258506 1.1636517 0.9806039 0.6503178 0.6138157 -0.24040164 -0.30698413
0.151793 0.27033675 1.2274743 1.4419415 0.6687414 0.27609256 -0.7007888 -1.1796594
0.3710008 0.37838483 1.2350423 1.1511524 0.70637685 -0.34049603 -0.72059727 -0.8657133
0.47042537 0.0370532 0.134894 0.44960448 0.060200106 -0.77887356 -0.4314974 -0.57081336
0.505614 -0.43836266 -0.5653425 -0.73490494 -0.6271069 -0.5866262 -0.1584329 0.3029977
0.46172988 -0.4997029 -1.1044692 -1.3533769 -1.1298636 -0.081873745 0.511961 0.149017
00000000: 830f 83bd 3293 f9bd 60ad 07bf 868f c9be
00000010: 12a7 0abf f146 b93e 0be1 573e 1ba2 cf3e
00000020: ed7f 0cbd c31c 2bbe 4074 df3c 6a8d dcbd
00000030: 1792 0a3e 3c69 3b3d 108d 21bc 8ac2 2ebe
00000040: faa0 38bc 3a1b d53d c0ac 723e 47d6 853e
00000050: 2e5e 80bd 81a2 38be edea 95be f7ec c5be
00000060: 6050 9e3d 31b2 d83d 67f5 343f ceb4 173f
00000070: 57f6 f03e bdf2 7f3e 59d9 a6bd 021e dfbd
00000080: da7c a0bd ae52 e53e 7b82 d33e f784 763f
00000090: eaa2 7b3e 8ba2 873e 3135 c8be 9b28 803e
000000a0: e27e 923d 8832 83be 31a4 2e3f b7b7 153f
000000b0: d3b6 cd3e 5990 d33d ee5e 2e3e f595 a43c
000000c0: 4d05 133e 8c7a 8b3d 36f3 8e3d 9a6e d73e
000000d0: 6448 253f 2948 073f f782 da3e ae32 c2be
000000e0: 8ef6 e53d 7299 08bd b446 303e 8176 733e
000000f0: dfd0 bf3d 095d 673e 5eeb 54bd 497a aa3e
00000100: 8294 bebe a1b5 90be e279 8cbe e3ef fc3c
00000110: 6e0d 2c3d f56b 14be 3fbb 25bd 6947 a3be
00000120: f89e ddbd 350a b1bd aabe bbbc 2170 0abe
00000130: e9ef 883b 5121 933c 8838 833e 49aa 463c
00000140: f05d 0b3e a187 723e 1a8e 063f e9ba e93e
00000150: 1f02 2a3e 6719 b63e 43c9 4bbe 83e6 3b3e
00000160: 75eb f13e f0e4 2e3e 39f0 9e3e 0f4b 0c3f
00000170: 7f71 a9bc 8718 323e 6df7 a6be afb8 d9be
00000180: 6edd 093f 41a8 6f3e 6ed4 c73e 3781 9b3e
00000190: 859b 45bd 30f4 5dbd 4d9c debe 0ac5 e4bd
000001a0: 3c98 db3e d4ec 843d 5022 973e 8236 ce3d
000001b0: 0100 90bc 92da 8dbe 5d92 dabd 6620 c33a
000001c0: a1c0 5d3d c563 4b3c acb8 29be 22e2 bcbe
000001d0: 0596 e3be df7b 16bf f715 63be 7411 7e3e
000001e0: 76d5 8fbe 1ed7 b2bd 301b fcbd 1d85 57be
000001f0: 43ca 0cbe 774e 6e3e 57a5 f73c 06e5 08bd
00000200: 9358 f3bc 16a4 4d3e af19 133f 8c83 3f3f
00000210: 4a3e 843f 10e4 f23e b6ba 5b3d 576c c8be
00000220: 9432 0dbe 23a9 99bd 6116 333e 8852 be3e
00000230: a510 553d f720 bd3c 79b7 88be b55b d3bd
00000240: 2664 c83d 8f1f f9be f26f 7abf 0e7b c2be
00000250: 94e3 85bd 053a a7be 7354 aa3e 900c 91bd
00000260: d4d5 e5be 5ec8 3abf 36a0 02c0 8852 8ebf
00000270: 2964 afbf 63c9 e3be d12b 153f 77a7 1e3f
00000280: 8a37 063f b840 76bf 5d12 d8bf a0eb e5bf
00000290: 27c6 39bf 5dc1 34bf 1994 973f 2718 973f
000002a0: 39cc d53e bbc5 6cbf 18b8 d0bf 8b66 c8bf
000002b0: dfd8 84bf 2824 abbc ce38 f03e 22ee 8ebe
000002c0: 1109 7f3e 9b5d 51be c76a b2be 0d85 a0be
000002d0: 3132 73bd 160f f93d e7d8 f5bd c93a 213e
000002e0: a01a 753e 5abc cf3d f328 9d3d 8015 bc3e
000002f0: 1e75 c7bc caf9 f3be 1fa0 89be f802 b6be
00000300: 9d0f 873d 2917 13bf ef0f 19bf 5d6e c4be
00000310: 0691 46be 9b58 acbe 740d 8d3e e76c 803d
00000320: ea77 68bd 847a d73d 6c9b a73d 131f a3bd
00000330: e207 d43e 8498 073d fb2a bebc c4a5 82be
00000340: a146 80be 259e 063f 8af2 943f db08 7b3f
00000350: 3a7b 263f 0723 1d3f d92b 76be 062d 9dbe
00000360: a06f 1b3e 9469 8a3e e11d 9d3f 8a91 b83f
00000370: a332 2b3f 015c 8d3e e566 33bf 14ff 96bf
00000380: d1f3 bd3e a8bb c13e de15 9e3f f658 933f
00000390: 1dd5 343f 7f55 aebe 1079 38bf 639f 5dbf
000003a0: 98db f03e 19c5 173d a721 0a3e 8f32 e63e
000003b0: 6394 763d 4264 47bf 3aed dcbe d320 12bf
000003c0: eb6f 013f 1271 e0be 49ba 10bf bb22 3cbf
000003d0: 148a 20bf 222d 16bf 3c3c 22be 8422 9b3e
000003e0: dc67 ec3e 0fd9 ffbe 3f5f 8dbf 743b adbf
000003f0: 5f9f 90bf 6cad a7bd e00f 033f ea97 183e

deconv.bias f4 [4]
-0.00039201873 0.00047905042 -0.00094766985 -0.0006420283
00000000: dd87 cdb9 0f29 fb39 0c6d 78ba ca4d 28ba

conv1.weight f4 [32, 5, 3, 3]
0.021423295 0.21483153 0.25652996 -0.21876085 -0.1682738 -0.1150849 0.036696084 -0.0790336
-0.1854538 0.22350118 0.39609665 0.27361912 -0.07804845 -0.08313683 -0.14757597 0.0008920926
-0.1399976 -0.25300717 0.55604875 0.47119904 0.41254887 -0.13884015 -0.2691156 0.018336385
-0.18498598 -0.41959715 -0.3514675 0.24267532 0.27579978 0.07433843 0.07979436 -0.16501191
0.12800798 -0.4700988 -0.30926943 -0.23037215 0.13896519 0.07768813 0.002999461 0.2644552
-0.641608 0.26509652 0.05379488 0.16213161 0.069875024 0.05398788 -0.0012129693 -0.13108927
-0.06846443 -0.047513016 0.050357223 0.008590261 0.30608836 0.26711348 -0.078650884 0.12374579
-0.04317085 -0.08290453 -0.10009072 -0.038212266 -0.48288012 0.26589587 0.072635114 0.24039128
0.0846875 0.012268233 -0.19632226 -0.09365494 0.06155118 -0.15511285 0.0060874205 0.27074245
-0.13025355 -0.043516766 0.05825579 0.09331761 -0.10789319 -0.12053224 -0.22313848 -0.057405956
0.25702512 -0.21029665 -0.06142903 -0.2044436 -0.14156084 0.029616745 -0.08590016 -0.40501246
0.04596621 -0.23450963 0.08002775 0.037009906 0.0051249308 -0.07968078 -0.055048168 0.052230265
-0.030176373 -0.094240524 0.02168355 0.04343728 0.04881418 -0.023426944 -0.058825593 0.015709937
0.09886962 -0.07903748 -0.08874107 0.12644751 -0.088167615 0.059884433 -0.15063483 -0.06634607
0.22658305 0.07852725 -0.2945092 0.013166357 0.1868169 -0.043551333 -0.03251623 -0.0028198042
0.051905207 0.071537375 0.049317256 -0.06863259 -0.15411413 0.26150796 0.07360122 -0.11459712
0.12125251 -0.8671361 1.1304808 -0.22319864 0.058488235 -0.16226967 0.12306773 -0.11122583
0.21124925 0.13763301 0.22289202 -0.01128329 0.11522684 0.15793319 -0.03320851 -0.18275894
-0.24029317 -0.023555143 -0.17125092 -0.01934874 -0.0013620806 -0.08385249 -0.13098527 0.017813692
-0.23832163 0.064687975 -0.18798618 -0.19080985 0.06457636 0.17746724 -0.10420906 0.27443817
0.04233479 0.0743633 -0.12906075 -0.027215095 -0.20042834 0.16567847 0.16481517 0.06097783
0.14185633 0.07181364 0.16712162 0.4121767 0.080396235 0.20762116 -0.005923796 -0.453388
0.2765638 0.34652007 0.16084346 0.18341331 -0.019106464 0.035192486 0.16182299 0.0123754665
-0.122100204 -0.09025855 0.16448987 -0.04369686 -0.1410423 0.022662265 0.013469694 0.16922705
0.012056863 -0.043547522 -0.1257989 0.1356104 -0.06967649 -0.111253805 -0.008769329 0.090724975
0.17354786 0.029546289 -0.07480762 -0.15024495 -0.046147317 -0.03240218 -0.17926957 0.04164355
0.088956274 -0.04507148 -0.009015066 0.024719035 -0.05386772 -0.03973667 -0.042989682 -0.16255753
0.37281016 0.28962836 0.28843778 0.017777996 1.7386457 0.48080423 0.4261817 0.4680872
0.6152805 -0.10375185 0.112290286 0.0015071664 0.05254417 0.020795437 -0.1239868 0.3843089
0.004372861 -0.23835997 -0.060424503 -0.05039201 -0.027333003 -0.02930417 0.03009071 -0.112616576
0.11580943 -0.08558876 -0.21149608 0.1297757 -0.01748109 0.16752118 0.14182638 -0.23570594
0.07200156 0.11873169 -0.272556 0.017478533 0.23376532 0.01924277 -0.13053577 0.01029765
00000000: e87f af3c ccfc 5b3e e557 833e d802 60be
00000010: f84f 2cbe a2b1 ebbd a24e 163d 5edc a1bd
00000020: 9ae7 3dbe 7edd 643e 2ecd ca3e ce17 8c3e
00000030: ded7 9fbd a443 aabd 281e 17be 52db 693a
00000040: 885b 0fbe 288a 81be 3659 0e3f 0041 f13e
00000050: 9b39 d33e 1d2c 0ebe 85c9 89be 3036 963c
00000060: f76c 3dbe 70d5 d6be 8cf3 b3be e17f 783e
00000070: a135 8d3e bf3e 983d 3a6b a33d e2f8 28be
00000080: 8614 033e cab0 f0be 9058 9ebe ade6 6bbe
00000090: e44c 0e3e f41a 9f3d 9b92 443b ac66 873e
000000a0: 6c40 24bf bbba 873e 0558 5c3d d405 263e
000000b0: a31a 8f3d 6522 5d3d 7ffc 9eba 443c 06be
000000c0: 1437 8cbd 029d 42bd 6043 4e3d 2bbe 0c3c
000000d0: 9db7 9c3e 19c3 883e b713 a1bd 6f6e fd3d
000000e0: ebd3 30bd dac9 a9bd 5dfc ccbd 7784 1cbd
000000f0: 103c f7be 8123 883e b8c1 943d 2229 763e
00000100: a470 ad3d b300 493c b408 49be 29ce bfbd
00000110: 171d 7c3d e7d5 1ebe fc78 c73b c19e 8a3e
00000120: 3061 05be a33e 32bd a09d 6e3d 4e1d bf3d
00000130: 1bf7 dcbd 9bd9 f6bd 6a7e 64be 8222 6bbd
00000140: cc98 833e 0158 57be 029d 7bbd aa59 51be
00000150: 53f5 10be d19e f23c 6cec afbd cb5d cfbe
00000160: 1147 3c3d 4b23 70be 97e5 a33d b397 173d
00000170: 09ef a73b ad2f a3bd 307a 61bd 67ef 553d
00000180: 7134 f7bc 2d01 c1bd b3a1 b13c 4aeb 313d
00000190: 61f1 473d dde9 bfbc 1bf3 70bd 20b2 803c
000001a0: 287c ca3d 67de a1bd e1bd b5bd 757b 013e
000001b0: 3991 b4bd 6149 753d 0440 1abe 73e0 87bd
000001c0: 6305 683e e5d2 a03d e9c9 96be b4b7 573c
000001d0: ee4c 3f3e e262 32bd bd2f 05bd 77cc 38bb
000001e0: 8e9a 543d 3082 923d e400 4a3d 3e8f 8cbd
000001f0: 18d0 1dbe 5fe4 853e 3dbc 963d e5b1 eabd
00000200: 3c53 f83d a2fc 5dbf 98b3 903f 2f8e 64be
00000210: 5c91 6f3d 052a 26be ef0a fc3d 5eca e3bd
00000220: b951 583e abef 0c3e ce3d 643e 8cdd 38bc
00000230: 0dfc eb3d 3db9 213e a605 08bd 2925 3bbe
00000240: 6a0f 76be b7f6 c0bc 675c 2fbe 4081 9ebc
00000250: d787 b2ba dbba abbd 0121 06be 05ee 913c
00000260: 960a 74be 217b 843d 737f 40be a863 43be
00000270: 9c40 843d f9b9 353e 8f6b d5bd 2983 8c3e
00000280: 3f67 2d3d c94b 983d 8028 04be 31f2 debc
00000290: 163d 4dbe 9ea7 293e 4fc5 283e e4c3 793d
000002a0: c942 113e 0813 933d ee21 2b3e d308 d33e
000002b0: c8a6 a43d a49a 543e 671c c2bb 7922 e8be
000002c0: c599 8d3e 146b b13e 26b4 243e b3d0 3b3e
000002d0: 2985 9cbc ff25 103d edb4 253e 78c2 4a3c
000002e0: ac0f fabd 7ad9 b8bd 0870 283e 7bfb 32bd
000002f0: 656d 10be 37a6 b93c feaf 5c3c db49 2d3e
00000300: 268a 453c e35e 32bd 6dd1 00be 74dd 0a3e
00000310: 8cb2 8ebd 09d9 e3bd 3bad 0fbc 04ce b93d
00000320: 88b6 313e 0f0b f23c bd34 99bd d0d9 19be
00000330: f804 3dbd 26b8 04bd 7192 37be 6d92 2a3d
00000340: b52e b63d df9c 38bd edb3 13bc 937f ca3c
00000350: 66a4 5cbd ebc2 22bd f315 30bd 7b75 26be
00000360: f9e0 be3e 2b4a 943e 1eae 933e 29a3 913c
00000370: f18b de3f f92b f63e 7d34 da3e 20a9 ef3e
00000380: 0683 1d3f da7b d4bd 73f8 e53d 1d8c c53a
00000390: 8e38 573d 315b aa3c cbec fdbd 23c4 c43e
000003a0: 374a 8f3b a314 74be af7f 77bd da67 4ebd
000003b0: 76e9 dfbc 4c0f f0bc cb80 f63c 85a3 e6bd
000003c0: 7f2d ed3d 2949 afbd 6e92 58be ece3 043e
000003d0: 8134 8fbc ac8a 2b3e ef3a 113e e65c 71be
000003e0: 8e75 933d 9a29 f33d 768c 8bbe 242f 8f3c
000003f0: 2d60 6f3e 03a3 9d3c 2bab 05be 79b7 283c

conv1.bias f4 [32]
0.033774722 0.030782148 -0.022430819 0.051151846 0.101949535 0.02044293 -0.034985237 3.488841e-05
-0.009743391 -0.0017500417 0.0507962 -0.46580878 -0.020626957 0.014592055 -0.0041279644 -0.019077603
0.009866838 0.016741255 -0.018034298 -0.0019701761 -0.00039619755 -0.04679763 -0.0037396457 0.007200823
-0.016486345 0.012610966 0.0089377025 -0.0016892275 0.016485548 0.016686086 0.02404013 0.0510147
00000000: 5d57 0a3d d82a fc3c d6c0 b7bc 9984 513d
00000010: ebca d03d ee77 a73c ae4c 0fbd 2555 1238
00000020: bea2 1fbc a861 e5ba ad0f 503d 7d7e eebe
00000030: ddf9 a8bc 8413 6f3c e043 87bb a248 9cbc
00000040: 85a8 213c f524 893c aabc 93bc 121e 01bb
00000050: bcb8 cfb9 dfae 3fbd d814 75bb e2f4 eb3b
00000060: 5f0e 87bc 3a9e 4e3c 716f 123c 1269 ddba
00000070: b30c 873c 42b1 883c cfef c43c caf4 503d

res1.conv20.weight f4 [32, 32, 3, 3]
0.005705911 0.13813822 0.27025807 -0.007894206 -0.34216923 0.13986178 -0.10252036 0.073891506
0.0701146 0.032464523 0.030605778 -0.22528182 -0.007618057 0.034203064 0.060427897 -0.10581056
0.07459318 -0.0999885 -0.035385914 0.17870268 -0.6287171 0.13299586 -0.18120198 -0.16340378
0.2725507 0.10150517 0.15857118 0.013314416 -0.0028591289 0.06216503 -0.0140064005 -0.5239791
-0.026947329 -0.06738359 -0.17059202 0.097151324 0.089480326 0.006028994 0.016629683 0.019262621
-0.16949296 0.07262404 0.09976805 0.024473924 0.062041093 0.037467748 0.058069095 0.05937647
0.2638329 0.16625455 -0.22862497 -0.028634548 0.28021884 -0.027588796 -0.14890735 -0.4493907
0.11205413 -0.2525605 0.1191261 -0.24042983 -0.38567758 -0.4030247 -0.42330915 0.0038253935
-0.02438879 -0.1393772 -0.07106386 -0.17075594 -0.019034958 0.0956075 0.111964375 -0.0573791
0.12976225 -0.1044431 -0.21920916 -0.20508204 0.15929723 0.17910646 -0.07114003 0.04992685
-0.23260106 -0.17543793 0.13484338 -0.020796677 -0.048593067 0.031581614 -0.004412558 -0.027101738
0.010372398 0.017877135 -0.10923289 0.10589113 -0.012074379 0.064445436 -0.024789387 0.018460914
0.003296242 0.0303163 0.104275174 0.3026715 -0.5284493 -0.36248973 -0.51513 0.3408444
-0.20577624 -0.112414755 -0.8157262 -1.0078417 0.038010173 -0.24959694 0.11056608 0.04282544
0.17235844 0.331962 -0.43079966 0.48804238 -0.22121127 0.045988187 -0.23476438 -0.036464836
0.09354137 -0.0022833324 -0.03201051 0.28492197 0.14679796 0.010977014 0.055101473 0.08273935
-0.21544343 -0.07656 -0.26443335 0.15680443 -0.2483456 0.1224022 -0.10394525 0.16904868
0.2800308 0.19589618 -0.09157109 -0.05434467 0.12946035 -0.30843583 -0.31597847 -0.39452377
0.076895505 0.099348664 -0.27788424 0.08035483 -0.28532043 0.17003989 0.14080845 0.17541973
-0.041748248 -0.12091757 -0.023903882 0.07297613 0.06663407 -0.18363997 0.042876903 -0.09321629
-0.13421075 -0.09974274 0.010291073 -0.74357545 -0.09891857 -0.17935339 0.022671884 -0.03808802
0.06583854 -0.1545769 -0.52112937 -0.16542254 0.1823979 0.031039774 0.15669604 0.05375612
0.12666564 -0.50415754 -0.177139 -0.16752401 0.015022782 -0.14591114 0.13251686 0.089419246
0.45051956 0.15696195 -0.18205023 0.17232339 0.16209124 -0.10195035 0.85895747 -0.16316909
0.10213396 0.027008459 -0.20160295 0.3954886 -0.10776246 0.26435196 -0.21868159 0.10861224
-0.1220247 -0.17304657 -0.16892661 0.081737995 0.10038563 0.24655777 -0.14071138 0.049784485
-0.07809216 -0.056003217 0.17530377 -0.13081849 -0.1861437 0.24453682 -0.04454583 0.090884484
0.111510776 0.5976258 -0.38100365 0.08810543 0.1675599 0.52455974 -0.10685093 0.084894374
0.26902786 -0.13573322 -0.052266393 -0.14275832 0.20479386 0.16363572 0.25218868 -0.1935402
-0.050640553 -0.15982953 -0.034840252 -0.06518264 -0.25923327 -0.13445288 0.114587896 0.18711743
-0.11820654 -0.12734345 0.20894763 0.052178685 0.096089 -0.0021779938 -0.105747454 -0.09334236
-0.016197266 0.060142238 0.035645764 -0.13315833 0.07533934 -0.0059968606 -0.01926228 0.04026153
00000000: a7f8 ba3b 1b74 0d3e 445f 8a3e b356 01bc
00000010: ce30 afbe ed37 0f3e 32f6 d1bd 6e54 973d
00000020: 3e98 8f3d 85f9 043d f8b8 fa3c 47b0 66be
00000030: e5a0 f9bb 8318 0c3d 3e83 773d 35b3 d8bd
00000040: 4fc4 983d c5c6 ccbd d2f0 10bd d6fd 363e
00000050: 9bf3 20bf 1130 083e 038d 39be 5253 27be
00000060: c48b 8b3e f1e1 cf3d 7c60 223e b524 5a3c
00000070: 3960 3bbb c2a0 7e3d 1a7b 65bc 7f23 06bf
00000080: a5c0 dcbc 6800 8abd adaf 2ebe 46f7 c63d
00000090: 7641 b73d de8e c53b f93a 883c a5cc 9d3c
000000a0: 908f 2dbe eabb 943d 3153 cc3d 8a7d c83c
000000b0: cd1e 7e3d c877 193d dcd9 6d3d be34 733d
000000c0: 1b15 873e a23e 2a3e aa1c 6abe 0093 eabc
000000d0: d878 8f3e e601 e2bc 2b7b 18be 8a16 e6be
000000e0: a37c e53d 9c4f 81be 62f8 f33d 3d33 76be
000000f0: 8877 c5be 4159 cebe fabb d8be 74b3 7a3b
00000100: 00cb c7bc e6b8 0ebe ee89 91bd a5da 2ebe
00000110: 33ef 9bbc ddcd c33d 944d e53d 5906 6bbd
00000120: 65e0 043e 44e6 d5bd 5e78 60be 0701 52be
00000130: d01e 233e af67 373e ddb1 91bd 1980 4c3d
00000140: f92e 6ebe 00a6 33be 6214 0a3e cb5d aabc
00000150: 8609 47bd b95b 013d 3897 90bb 7704 debc
00000160: fef0 293c 1273 923c 7eb5 dfbd 73dd d83d
00000170: 9ed3 45bc f8fb 833d 1d13 cbbc 583b 973c
00000180: c405 583b e459 f83c 398e d53d c2f7 9a3e
00000190: 7448 07bf 4198 b9be 8fdf 03bf 2883 ae3e
000001a0: 02b7 52be b539 e6bd 6fd3 50bf f500 81bf
000001b0: 8eb0 1b3d 5796 7fbe 7870 e23d bb69 2f3d
000001c0: bb7e 303e ecf6 a93e c691 dcbe b1e0 f93e
000001d0: 3585 62be 1c5e 3c3d 1366 70be 275c 15bd
000001e0: 9e92 bf3d f6a3 15bb 741d 03bd 4be1 913e
000001f0: 3452 163e efd8 333c 15b2 613d 4073 a93d
00000200: 349d 5cbe 7dcb 9cbd cf63 87be 5791 203e
00000210: 4f4e 7ebe 01ae fa3d 3fe1 d4bd 191b 2d3e
00000220: 3260 8f3e 0299 483e a089 bbbd 8498 5ebd
00000230: 4191 043e 4deb 9dbe eec7 a1be 05ff c9be
00000240: 647b 9d3d 5077 cb3d d846 8ebe 1391 a43d
00000250: 8515 92be f01e 2e3e 1730 103e 3ba1 333e
00000260: 3600 2bbd a2a3 f7bd 13d2 c3bc 8274 953d
00000270: 7177 883d 1e0c 3cbe b19f 2f3d 2fe8 bebd
00000280: 8b6e 09be ec45 ccbd e39b 283c f65a 3ebf
00000290: d295 cabd 6aa8 37be 63ba b93c 2f02 1cbd
000002a0: 5bd6 863d 6849 1ebe bc68 05bf 8764 29be
000002b0: 84c6 3a3e 2047 fe3c ed74 203e 612f 5c3d
000002c0: a3b4 013e 7810 01bf ed63 35be 6a8b 2bbe
000002d0: 1d22 763c bb69 15be 80b2 073e 7021 b73d
000002e0: 80aa e63e a2ba 203e 606b 3abe 8b75 303e
000002f0: 3ffb 253e 58cb d0bd a3e4 5b3f cc15 27be
00000300: 9c2b d13d d840 dd3c 0171 4ebe 7b7d ca3e
00000310: 91b2 dcbd 2459 873e 11ee 5fbe 1870 de3d
00000320: 16e8 f9bd 1f33 31be 19fb 2cbe 4066 a73d
00000330: fb96 cd3d a479 7c3e a516 10be d1ea 4b3d
00000340: c8ee 9fbd a163 65bd d582 333e 48f5 05be
00000350: 749c 3ebe dc67 7a3e b075 36bd a521 ba3d
00000360: c35f e43d 01fe 183f e912 c3be 9f70 b43d
00000370: d394 2b3e 8c49 063f a9d4 dabd 1add ad3d
00000380: 05be 893e a6fd 0abe 4915 56bd 3d2f 12be
00000390: 7bb5 513e 1f90 273e e01e 813e 672f 46be
000003a0: 786c 4fbd 5aaa 23be a7b4 0ebd 7a7e 85bd
000003b0: 39ba 84be 04ae 09be 0fad ea3d b69b 3f3e
000003c0: 4516 f2bd 5266 02be 5ef6 553e 51b9 553d
000003d0: 4fca c43d acbc 0ebb 1f92 d8bd 472a bfbd
000003e0: 21b0 84bc b557 763d 4b01 123d a85a 08be
000003f0: 834b 9a3d 5081 c4bb eecb 9dbc 46e9 243d

res1.conv20.bias f4 [32]
-0.011523405 -0.017511826 -0.022204166 0.042361222 -0.007807587 0.022253959 0.011350064 -0.030529432
-0.20016842 0.0444327 -0.06076416 -0.0033257832 -0.05499306 0.010595315 -0.02709841 0.03231693
0.027829822 -0.019539231 0.012540592 0.05713633 0.020772092 -0.23062606 -0.047186237 0.016978126
0.018878011 -0.13801758 -0.023900364 0.007326463 0.030266495 0.028164834 -0.019104118 0.003974437
00000000: aacc 3cbc f674 8fbc 83e5 b5bc f682 2d3d
00000010: c9d6 ffbb ef4d b63c 9ef5 393c dc18 fabc
00000020: f3f8 4cbe 10ff 353d d7e3 78bd 62f5 59bb
00000030: 6740 61bd f997 2d3c 7cfd ddbc c25e 043d
00000040: 5efb e33c bd10 a0bc 0e77 4d3c c907 6a3d
00000050: 3c2a aa3c 3d29 6cbe 5b46 41bd b615 8b3c
00000060: 0fa6 9a3c 7b54 0dbe b2ca c3bc d312 f03b
00000070: 71f1 f73c f0b9 e63c 3d80 9cbc fe3b 823b

res1.conv21.weight f4 [32, 32, 3, 3]
-0.060141914 -0.042103395 0.0024401392 0.12996349 0.030971043 0.18117115 -0.08894356 0.04784671
0.051059455 0.27640098 0.02940796 0.051041532 -0.09866472 0.028039338 -0.05915923 0.006158564
-0.06560834 -0.06286929 0.017393693 -0.050932262 -0.044060655 -0.0703042 -0.013115389 -0.15304095
-0.054905675 0.05196926 0.008867189 0.09201142 0.14004502 -0.76402545 -0.07284159 0.049457274
0.40809044 0.096176706 -0.076819085 -0.26317242 -0.017194346 -0.0017732021 -0.028549312 0.00758756
0.070719086 0.0786917 -0.046934035 -0.01898565 0.11450488 0.082019046 0.01456305 0.070215814
-0.09143623 0.01651522 0.0991823 -0.09467682 0.025251059 0.010190806 -0.07619456 -0.1218472
0.23151763 -0.070501566 0.05142134 -0.049837243 -0.1393719 0.04383063 0.25127876 0.0068364623
0.019644637 -0.039560687 -0.05518978 0.018281205 -0.040496867 -0.10552161 -0.20245895 -0.098236926
-0.766562 -0.28332824 0.32603762 0.12145044 0.13591377 0.48515478 0.44658786 -0.29192507
-0.3841688 -0.17867734 -0.15259717 -0.37621048 -0.05154065 -0.07193366 -0.09062793 0.30528247
0.15992941 -0.13068588 0.05377327 0.14502056 0.09326808 -0.008849055 -0.00037486767 -0.12772623
0.002498273 -0.02990798 -0.2741719 -0.084722824 0.0404568 0.028633779 -0.011981219 0.24349518
0.16924368 -0.08666897 -0.042797755 0.07467568 0.124983475 0.017951306 -0.049332052 -0.016575737
-0.015293042 -0.046778355 0.10710364 0.0026614538 -0.098363966 0.0047716876 -0.15821134 -0.005337861
0.014508547 -0.018588975 0.15161383 -0.041769523 0.04264607 -0.028861564 0.06899467 0.033987407
0.008597837 0.02811772 -0.08405054 0.03695141 0.034998283 0.07924108 -0.06856074 0.07313971
0.22238973 0.14438343 -0.081511915 -0.0116565935 -0.07556029 -0.014509193 0.014172642 -0.17329435
-0.09953555 -0.032656245 0.021612963 -0.051446427 0.09362815 -0.15102655 -0.09802839 -0.0682974
-0.123718016 -0.0883232 -0.0859292 -0.052170224 -0.060337808 0.06113336 0.04399815 -0.07011933
-0.037501056 0.073120326 0.12083472 0.1610466 0.2711917 0.15796144 -0.09902006 0.004347716
-0.08810481 0.027214501 -0.14222553 -0.13847366 -0.23701166 -0.16456099 -0.09042622 0.43948394
-0.07063301 0.029513571 0.06225235 0.03535051 0.08504138 0.004227492 0.06728805 -0.06255788
-0.1987298 -0.07792983 -0.037397973 0.07374222 -0.031472266 -0.002572196 0.13098978 0.48256755
0.44695657 -0.25866124 -0.2255725 0.3298029 0.13090383 -0.0127036 -0.047383603 -0.031736717
0.06842391 0.029674338 0.024551816 -0.11102208 -0.043190606 0.09981407 -0.14503607 0.004284809
-0.046479456 -0.064227484 -0.09249109 0.085012786 -0.07604148 -0.04300709 0.14048499 -0.03234676
-0.15945257 -0.08736029 -0.37896806 -0.06303064 0.21125717 -0.030587792 0.23009041 0.19434446
-0.023732018 -0.15618458 -0.1343393 -0.088927835 0.118250504 -0.003990914 -0.055602252 -0.1713022
0.026589679 -0.086356185 -0.014427705 -0.031306192 -0.069421396 0.044303905 0.08870056 0.037505172
0.09252454 0.015387561 -0.02892594 -0.002567765 -0.0038248717 0.023051439 0.049355827 -0.10063209
-0.011649278 0.0849985 0.022728773 -0.08190462 0.00786355 -0.16776463 0.02558264 -0.03170268
00000000: 5e57 76bd 9c74 2cbd beea 1f3b 2615 053e
00000010: fcb6 fd3c ee84 393e 0b28 b6bd e9fa 433d
00000020: b823 513d 6e84 8d3e f6e8 f03c ed10 513d
00000030: bb10 cabd c1b2 e53c f350 72bd c7cd c93b
00000040: aa5d 86bd 9dc1 80bd 387d 8e3c 599e 50bd
00000050: f278 34bd a6fb 8fbd eee1 56bc c4b6 1cbe
00000060: c6e4 60bd b8dd 543d b047 113c 7c70 bc3d
00000070: f667 0f3e 2c97 43bf f92d 95bd b693 4a3d
00000080: 3bf1 d03e 4bf8 c43d 5353 9dbd 89be 86be
00000090: 28db 8cbc ca6a e8ba 3fe0 e9bc 11a1 f83b
000000a0: 2bd5 903d 1d29 a13d e73d 40bd cb87 9bbc
000000b0: 8981 ea3d 9af9 a73d dc99 6e3c 4fcd 8f3d
000000c0: eb42 bbbd ed4a 873c 1720 cb3d ece5 c1bd
000000d0: 4fdb ce3c 57f7 263c e50b 9cbd 068b f9bd
000000e0: f512 6d3e 2063 90bd 2f9f 523d 2322 4cbd
000000f0: 82b7 0ebe bf87 333d 9ca7 803e 6704 e03b
00000100: caed a03c 630a 22bd ae0e 62bd 77c2 953c
00000110: 0be0 25bd b71b d8bd 6651 4fbe 7130 c9bd
00000120: 683d 44bf 6610 91be 67ee a63e 02bb f83d
00000130: fb2c 0b3e 3566 f83e 2aa7 e43e 3477 95be
00000140: c6b1 c4be 31f7 36be 6f42 1cbe a99e c0be
00000150: 4a1c 53bd f451 93bd 239b b9bd fc4d 9c3e
00000160: 89c4 233e 85d2 05be 5c41 5c3d 4580 143e
00000170: 5603 bf3d a0fb 10bc e389 c4b9 aaca 02be
00000180: 11ba 233b 9401 f5bc 4260 8cbe 2983 adbd
00000190: 08b6 253d 6391 ea3c e04c 44bc cd56 793e
000001a0: 374e 2d3e 807f b1bd b34c 2fbd 90ef 983d
000001b0: 56f7 ff3d 9e0e 933c 6810 4abd d7c9 87bc
000001c0: ab8f 7abc a99a 3fbd 2759 db3d c96b 2e3b
000001d0: 0c73 c9bd d15b 9c3b 2702 22be 39e9 aebb
000001e0: 42b5 6d3c e847 98bc a840 1b3e 8516 2bbd
000001f0: a5ad 2e3d 166f ecbc 144d 8d3d 6136 0b3d
00000200: f1dd 0c3c 2257 e63c b122 acbd 5d5a 173d
00000210: 5c5a 0f3d 2649 a23d 9369 8cbd 46ca 953d
00000220: 22ba 633e 40d9 133e b8ef a6bd 4cfb 3ebc
00000230: 5abf 9abd f7b7 6dbc 5e34 683c 1374 31be
00000240: 4bd9 cbbd 8ec2 05bd ab0d b13c 7db9 52bd
00000250: 1ec0 bf3d b4a6 1abe 1cc3 c8bd 82df 8bbd
00000260: df5f fdbd cbe2 b4bd a6fb afbd 72b0 55bd
00000270: c724 77bd f966 7a3d 6737 343d b99a 8fbd
00000280: b59a 19bd 1cc0 953d 3278 f73d 66e9 243e
00000290: a3d9 8a3e a5c0 213e 07cb cabd 4977 8e3b
000002a0: 4b70 b4bd f2f0 de3c 92a3 11be 0acc 0dbe
000002b0: 2fb3 72be ad82 28be 6231 b9bd 0a04 e13e
000002c0: 0aa8 90bd 72c6 f13c 52fc 7e3d b2cb 103d
000002d0: 2d2a ae3d c686 8a3b 51ce 893d 591e 80bd
000002e0: d37f 4bbe ad99 9fbd 9e2e 19bd 2906 973d
000002f0: 10e9 00bd 4a92 28bb 2f22 063e 1813 f73e
00000300: 7ed7 e43e 3f6f 84be 7afc 66be eddb a83e
00000310: a70b 063e c322 50bc 4f15 42bd 5cfe 01bd
00000320: d621 8c3d 9917 f33c e420 c93c 8b5f e3bd
00000330: a2e8 30bd 526b cc3d 5684 14be 9567 8c3b
00000340: 3e61 3ebd b389 83bd f86b bdbd 2f1b ae3d
00000350: a3bb 9bbd 3428 30bd 4cdb 0f3e 097e 04bd
00000360: 8947 23be f4e9 b2bd 1a08 c2be 3516 81bd
00000370: cd53 583e 4093 fabc d29c 6b3e 3c02 473e
00000380: a669 c2bc daee 1fbe 3e90 09be cc1f b6bd
00000390: 522d f23d 37c6 82bb 30bf 63bd d869 2fbe
000003a0: 99d2 d93c 83db b0bd 2e62 6cbc ec3a 00bd
000003b0: ce2c 8ebd 0378 353d a4a8 b53d 069f 193d
000003c0: 827d bd3d 1c1c 7c3c 18f6 ecbc f347 28bb
000003d0: b3aa 7abb 5fd6 bc3c 5629 4a3d 3218 cebd
000003e0: 9ddc 3ebc b213 ae3d b131 ba3c 9cbd a7bd
000003f0: 1fd6 003c 7eca 2bbe af92 d13c abda 01bd

res1.conv21.bias f4 [32]
-0.027959852 -0.00092763134 0.014667237 -0.0072734756 -0.09152574 -0.0040763034 -0.016928453 -0.0048983195
-0.005845664 0.020122372 0.0053479113 0.032237772 0.01996843 -0.017338783 0.015291429 0.019718355
-0.06667271 -0.02256282 0.012665573 -0.023698019 -0.032269195 -0.017279526 -0.0059472932 -0.0036811505
0.023990117 0.00044018304 0.010675034 -0.022230888 -0.01157772 -0.02295821 -0.042935297 -0.02706382
00000000: 0f0c e5bc 492c 73ba da4e 703c 5656 eebb
00000010: d971 bbbd 8392 85bb 8aad 8abc 1582 a0bb
00000020: fc8c bfbb acd7 a43c 883d af3b c10b 043d
00000030: d594 a33c 100a 8ebc e788 7a3c 6388 a13c
00000040: b48b 88bd aad5 b8bc 4383 4f3c 5922 c2bc
00000050: b42c 04bd cb8d 8dbc 83e1 c2bb 753f 71bb
00000060: ec86 c43c 5ec8 e639 56e6 2e3c 8d1d b6bc
00000070: 7ab0 3dbc db12 bcbc ecdc 2fbd f2b4 ddbc

res2.conv20.weight f4 [32, 32, 3, 3]
0.26120442 0.44223073 0.5164517 0.029711282 -0.007857421 0.12059099 -0.17932881 -0.08065996
-0.1124362 -0.30513614 0.15181606 -0.12138415 -0.020808255 0.03890182 0.14206015 -0.3871987
0.02333547 0.058061875 0.024269668 -0.060887985 -0.12965824 0.055148676 -0.0016116158 0.09984445
0.16350372 -0.036307003 0.011526142 0.16666664 -0.051372893 -0.29518083 0.073613465 -0.09962557
0.06484004 0.18697864 0.21995963 0.17799465 0.13847029 0.34244755 0.22392343 0.3056158
0.12584974 0.08130237 0.32422388 0.19600064 0.21947142 -0.243298 -0.18942383 0.10077094
0.27412105 -0.14306544 0.028253563 0.29613224 -0.21149622 0.20728917 -0.013813383 -0.163603
0.14579076 -0.1484199 0.045515083 0.11039884 -0.056936216 0.17889461 -0.0010161735 -0.07346964
0.083859645 0.16016479 -0.15459086 0.14009228 4.9679817e-05 -0.25289968 -0.026055882 -0.08379855
0.052000653 0.046770997 0.18144915 -0.01840216 0.1164203 -0.11945042 0.07172639 -0.17798181
-0.22149915 -0.19004595 0.013109209 -0.17747429 0.010422943 -0.14608651 0.19600832 -0.1307755
0.06389713 0.24833633 -0.0032371893 0.03715854 0.016880494 0.10776822 0.004666871 -0.122462645
0.13569435 -0.15042083 -0.37340716 0.5012293 0.20250216 0.31795916 0.0912595 -0.00715439
0.023312401 -0.14491622 0.18008426 0.065533996 -0.088890314 -0.039808825 0.031773154 0.31514838
-0.023545956 0.2512596 -0.3557547 -0.14583004 0.24817559 0.001658082 -0.026762338 0.054504447
0.26412332 -0.105834894 -0.36415508 0.506666 -0.15207735 -0.5279812 -0.5067553 -0.19478527
0.24736547 0.033070266 0.1766017 0.32850564 0.07516791 -0.12684596 -0.05405497 -0.012511988
-0.098493665 -0.1541624 0.24405722 0.062891 -0.19920106 0.1228584 0.050037 -0.031591456
-0.042176645 0.024706418 -0.16717479 -0.03241161 0.17424056 0.17233182 0.04178173 -0.10318261
-0.026815405 -0.176214 0.13391852 -0.14790653 0.028127566 -0.011705379 0.14415242 -0.0052846014
0.09801953 -0.20451537 0.19749323 0.00024990385 -0.28714713 0.13815424 0.035912003 0.10989586
-0.06996802 0.075191885 -0.1835115 -0.14921196 -0.030033471 -0.27661404 0.11504189 0.031919073
-0.1822437 0.031960286 0.25245556 -0.26333296 0.034196552 0.07424159 0.04236824 0.06464815
0.004170895 0.016773418 0.038624804 -0.047942452 -0.11468001 0.092299856 0.12467871 0.47264585
0.075792946 -0.029632844 -0.011247947 -0.5410245 -0.3392191 -0.0911803 -0.21106255 -0.13823341
-0.24413355 0.16832612 0.10669648 0.06305945 -0.29633734 -0.0615089 0.31278536 -0.0608307
0.06529102 0.20485045 -0.41712335 0.02416923 -0.0334532 -0.19309795 0.017706469 0.09524659
0.05692223 -0.11465451 -0.23484683 -0.32488376 0.22560407 0.031537127 0.36306006 0.3419056
0.10314624 -0.28705525 -0.034416445 -0.16171996 0.44237784 0.045934513 -0.08353979 -0.21777554
-0.119802505 0.07023014 0.019916805 -0.043024465 0.0292945 -0.015901666 0.27592373 -0.28094104
0.052166007 -0.061663594 -0.063859396 0.31509537 -0.02477913 -0.31872255 -0.09337567 -0.0068430393
-0.14915203 0.40632418 0.026518459 -0.21992278 0.008099291 0.13100883 -0.28236663 -0.11170759
00000000: 96bc 853e 116c e23e 2e36 043f 1365 f33c
00000010: 6abc 00bc 69f8 f63d f9a1 37be 0d31 a5bd
00000020: f344 e6bd ce3a 9cbe ab75 1b3e 4198 f8bd
00000030: 1376 aabc 8457 1f3d 3778 113e e83e c6be
00000040: 072a bf3c 4ad2 6d3d 2fd1 c63c ae65 79bd
00000050: 21c5 04be 94e3 613d da3c d3ba 3f7b cc3d
00000060: 856d 273e a7b6 14bd 25d8 3c3c a9aa 2a3e
00000070: 626c 52bd f121 97be a8c2 963d 7e08 ccbd
00000080: dbca 843d 5477 3f3e 193d 613e 3b44 363e
00000090: 28cb 0d3e 4955 af3e 2f4c 653e ad79 9c3e
000000a0: c1de 003e db81 a63d ac00 a63e 64b4 483e
000000b0: 1ebd 603e 1c23 79be 52f8 41be ff60 ce3d
000000c0: 9859 8c3e bf7f 12be 0474 e73c a59e 973e
000000d0: 7792 58be 9d43 543e 8751 62bc 8b87 27be
000000e0: 2c4a 153e 63fb 17be 066e 3a3d c918 e23d
000000f0: f335 69bd 2630 373e 2031 85ba 4077 96bd
00000100: 9bbe ab3d 3d02 243e 114d 1ebe 5a74 0f3e
00000110: 4c5f 5038 117c 81be 2573 d5bc 939e abbd
00000120: a3fe 543d f292 3f3d cecd 393e 20c0 96bc
00000130: c46d ee3d 6ca2 f4bd 49e5 923d dd40 36be
00000140: acd0 62be 689b 42be 02c8 563c d2bb 35be
00000150: fec4 2a3c b497 15be 68b6 483e 03ea 05be
00000160: 80dc 823d e14b 7e3e 0627 54bb 8e33 183d
00000170: f648 8a3c 96b5 dc3d 8dec 983b b2cd fabd
00000180: 76f3 0a3e eb07 1abe 392f bfbe 9050 003f
00000190: ba5c 4f3e 8bcb a23e 43e6 ba3d 606f eabb
000001a0: a6f9 be3c eb64 14be 0268 383e b036 863d
000001b0: 200c b6bd 940e 23bd 9124 023d 215b a13e
000001c0: 73e3 c0bc 19a5 803e 7b25 b6be 7854 15be
000001d0: be21 7e3e 0054 d93a b13c dbbc 0e40 5f3d
000001e0: 2c3b 873e f7bf d8bd 8972 babe ddb4 013f
000001f0: 2aba 1bbe c729 07bf b7ba 01bf ca75 47be
00000200: 604d 7d3e b074 073d 13d7 343e e431 a83e
00000210: a2f1 993d e8e3 01be bf68 5dbd 15ff 4cbc
00000220: 0cb7 c9bd c0dc 1dbe 23ea 793e ffcc 803d
00000230: 5dfb 4bbe 2f9d fb3d 99f3 4c3d 0b66 01bd
00000240: 6bc1 2cbd 1d65 ca3c de2f 2bbe 09c2 04bd
00000250: 1e6c 323e c177 303e 5223 2b3d 6751 d3bd
00000260: fbab dbbc 7171 34be f021 093e cf74 17be
00000270: c86b e63c ebc7 3fbc b19c 133e 732a adbb
00000280: 77be c83d 7a6c 51be aa3b 4a3e 8705 8339
00000290: f304 93be 4e78 0d3e 7718 133d 1511 e13d
000002a0: 654b 8fbd 34fe 993d 70ea 3bbe 05cb 18be
000002b0: c108 f6bc 5ba0 8dbe 159b eb3d 93bd 023d
000002c0: 189e 3abe cae8 023d db41 813e 94d3 86be
000002d0: af11 0c3d fa0b 983d 528a 2d3d 4066 843d
000002e0: 01ac 883b 6868 893c 0b35 1e3d 4e5f 44bd
000002f0: 5add eabd b507 bd3d 8d57 ff3d a3fe f13e
00000300: 5539 9b3d 94c0 f2bc 4f49 38bc 9580 0abf
00000310: 20ae adbe bdbc babd c820 58be 0f8d 0dbe
00000320: 25fe 79be af5d 2c3e af83 da3d 5025 813d
00000330: 87b9 97be c2f0 7bbd 6725 a03e 9d29 79bd
00000340: 4cb7 853d 51c4 513e 3191 d5be 8dfe c53c
00000350: 3906 09bd 78bb 45be 280d 913c a510 c33d
00000360: 4927 693d fccf eabd b07b 70be 2a57 a6be
00000370: c104 673e 132d 013d 02e3 b93e 400e af3e
00000380: 563e d33d e8f8 92be 42f8 0cbd eb99 25be
00000390: 597f e23e d425 3c3d e916 abbd 8d00 5fbe
000003a0: 045b f5bd d2d4 8f3d 9128 a33c 6c3a 30bd
000003b0: 05fb ef3c 3644 82bc e045 8d3e 81d7 8fbe
000003c0: 06ac 553d f792 7cbd b7c8 82bd 2e54 a13e
000003d0: 9afd cabc 9a2f a3be be3b bfbd 933b e0bb
000003e0: 4fbb 18be b909 d03e 3d3d d93c 7033 61be
000003f0: e3b2 043c 2e27 063e 5c92 90be f3c6 e4bd

res2.conv20.bias f4 [32]
-0.019566424 -0.07225371 -0.04195107 -0.01545693 -0.022342784 0.012958866 -0.14177206 -0.0645997
-0.08079102 -0.018407179 -0.0262158 -0.12404676 -0.035497624 -0.024041202 -0.095728874 -0.045558266
-0.079026364 -0.057108674 -0.025199855 0.036215127 0.008252378 0.027864892 -0.07166523 -0.020070024
-0.023657503 -0.018228602 -0.03552026 -0.051817365 -0.009621319 -0.03843929 -0.014461385 -0.011817018
00000000: c449 a0bc c1f9 93bd e3d4 2bbd 103f 7dbc
00000010: 3708 b7bc 6c51 543c b22c 11be d94c 84bd
00000020: c375 a5bd a7ca 96bc 84c2 d6bc 3a0c febd
00000030: f565 11bd 0ef2 c4bc 800d c4bd 4e9b 3abd
00000040: 93d8 a1bd c9ea 69bd ed6f cebc 5056 143d
00000050: fb34 073c ea44 e43c 38c5 92bd e469 a4bc
00000060: 61cd c1bc 2654 95bc b17d 11bd 723e 54bd
00000070: bda2 1dbc 8472 1dbd 72ef 6cbc 2a9c 41bc

res2.conv21.weight f4 [32, 32, 3, 3]
0.1201375 -0.02776444 0.057978652 -0.09403348 -0.0013068715 0.020907713 0.02010511 0.091013044
0.029104099 0.028617384 -0.26595834 -0.140767 -0.1043326 -0.010193316 0.13263668 0.1547384
-0.019441957 0.030885618 0.013909634 -0.07306371 0.115368314 0.016223349 0.0396512 0.055043954
-0.16613504 0.05765687 -0.062360615 0.109348506 0.089934506 -0.09240645 0.038323127 -0.10279514
-0.2471929 0.066743664 0.18709934 -0.099893026 0.015831245 -0.019603107 -0.028131766 0.071058065
-0.14295422 -0.09046585 0.08420571 -0.058485765 0.042678025 0.06280083 0.19921821 -0.01049171
-0.024324778 -0.05501399 -0.010998804 0.08943446 0.06313035 0.124860466 0.17070346 0.05295319
-0.018945009 0.051460426 -0.016850086 -0.087797865 0.23740734 0.18534921 0.11355893 -0.10845314
0.18706791 -0.19125855 0.06066009 0.11993318 -0.289917 -0.026218934 0.020284234 0.0044782585
0.1457788 0.02189959 -0.020850439 -0.0025484993 -0.00029655028 0.1781513 0.15635216 0.20297879
0.01472508 -0.13919137 -0.059971493 -0.122772045 0.073821925 0.12618929 -0.014151811 0.06592669
0.06464094 0.06068408 -0.0019475329 -0.05511478 0.117909685 -0.014504163 -0.019232763 0.045714445
-0.031134104 -0.10415106 -0.088083394 0.22874139 0.059402574 0.10584361 0.05253035 0.026737984
0.050816603 0.22325395 -0.10914675 0.15984993 -0.0985883 0.02762806 -0.029065229 -0.026243752
-0.014955569 -0.073017366 0.20929195 -0.036622476 0.157838 0.029696876 0.031674046 -0.088499926
-0.030583214 0.13310422 0.05442995 -0.064433195 0.01735515 0.035846844 -0.037730932 0.18266256
0.06100205 -0.013522665 -0.035925295 -0.16523677 -0.040616225 0.08871754 -0.043551777 0.17675304
0.0025485447 -0.21709493 0.023201298 -0.08320315 -0.021675127 0.1884252 0.028170643 -0.05442134
-0.03012608 -0.1954488 0.063600205 0.17210665 0.051952664 -0.0782622 0.10618684 0.21221629
0.1362661 0.025113672 -0.050471377 0.062162787 0.067503855 0.114524744 0.045463428 0.0934605
0.027144425 0.037954498 -0.09791944 -0.05687224 -0.040281802 -0.09544929 -0.11128644 -0.19921769
0.012277679 -0.036115464 0.0186248 -0.0064280336 0.19648792 0.09910473 0.04102631 -0.030608436
0.010147504 -0.014104474 0.08057608 -0.042257342 0.040042862 -0.013439565 0.080896586 0.19320416
-0.13919179 0.05105294 -0.028289089 0.097415425 -0.10246414 -0.04279599 -0.19498685 -0.031945433
0.0098183565 -0.13419262 0.11654796 0.12975144 -0.016238976 0.056505043 -0.091315106 -0.24921212
-0.14823411 0.14873125 -0.1680566 -0.1975248 -0.07658876 -0.099401556 0.10635431 0.111279204
0.19458562 -0.011513724 0.018620675 0.13051377 0.01939873 -0.06842036 0.045883935 -0.10295711
0.037931863 0.03703127 0.0015638291 0.11753881 -0.14996058 0.1698477 0.15679023 0.09788138
0.02964505 0.017050803 0.037524514 0.09128468 0.10652776 0.0933747 -0.019653419 -0.022934537
0.10809925 0.15086974 0.05745386 -0.09493699 0.037242822 0.1421655 -0.3223254 -0.047239713
0.13877001 0.10565592 0.054329548 -0.17597684 -0.023856891 -0.058580108 0.09654268 0.02511819
-0.10314861 0.0485596 0.11581446 -0.072693504 0.052864682 -0.029792227 -0.06073842 0.015563178
00000000: a60a f63d 4072 e3bc 067b 6d3d a094 c0bd
00000010: 554b abba a746 ab3c 79b3 a43c 0c65 ba3d
00000020: b86b ee3c 016f ea3c b12b 88be 3925 10be
00000030: 55ac d5bd de01 27bc e9d1 073e be73 1e3e
00000040: bd44 9fbc d603 fd3c 3ce5 633c 6da2 95bd
00000050: 3946 ec3d d4e6 843c 4c69 223d c575 613d
00000060: 4e1f 2abe 9c29 6c3d d86d 7fbd 1cf2 df3d
00000070: 952f b83d 983f bdbd b6f8 1c3d 4286 d2bd
00000080: 2320 7dbe e7b0 883d f896 3f3e b794 ccbd
00000090: 87b0 813c b296 a0bc 9774 e6bc e486 913d
000000a0: 9762 12be 2946 b9bd 0b74 ac3d c58e 6fbd
000000b0: 27cf 2e3d b99d 803d dcff 4b3e 6ce5 2bbc
000000c0: c244 c7bc 5956 61bd 5434 34bc 6a29 b73d
000000d0: 7c4a 813d d8b6 ff3d e3cc 2e3e 72e5 583d
000000e0: 9032 9bbc 2bc8 523d 3109 8abc 5ecf b3bd
000000f0: e91a 733e 2fcc 3d3e 9691 e83d ae1c debd
00000100: bb8e 3f3e 48d9 43be b776 783d 879f f53d
00000110: 0070 94be 17c9 d6bc 1f2b a63c 5bbe 923b
00000120: 0a47 153e c566 b33c 8ace aabc b904 27bb
00000130: 4e7a 9bb9 4b6d 363e c81a 203e acd9 4f3e
00000140: 7641 713c 2f88 0ebe aba4 75bd e96f fbbd
00000150: f32f 973d c437 013e ffdc 67bc 9304 873d
00000160: 7862 843d df8f 783d 5c44 ffba 09c0 61bd
00000170: a27a f13d dea2 6dbc 078e 9dbc 123f 3b3d
00000180: f30c ffbc 274d d5bd 1165 b4bd 2f3b 6a3e
00000190: 1d50 733d 89c4 d83d 102a 573d 9e09 db3c
000001a0: 1225 503d af9c 643e 5588 dfbd b3af 233e
000001b0: aae8 c9bd 3e54 e23c 341a eebc 23fd d6bc
000001c0: 3408 75bc 218a 95bd a150 563e 7301 16bd
000001d0: 49a0 213e dd46 f33c a5bc 013d 733f b5bd
000001e0: a689 fabc 794c 083e f0f1 5e3d 8df5 83bd
000001f0: 632c 8e3c 24d4 123d c08b 1abd e50b 3b3e
00000200: 49dd 793d 2b8e 5dbc 6726 13bd d433 29be
00000210: 335d 26bd 8bb1 b53d 5963 32bd c0fe 343e
00000220: 7c05 273b 224e 5ebe a610 be3c 6a66 aabd
00000230: 0990 b1bc 89f2 403e 1fc6 e63c e9e8 5ebd
00000240: f8ca f6bc bb23 48be d340 823d ba3c 303e
00000250: 51cc 543d ef47 a0bd 7c78 d93d 3a4f 593e
00000260: 5789 0b3e 30bb cd3c 13bb 4ebd 689e 7e3d
00000270: 763f 8a3d f38b ea3d dc37 3a3d 3868 bf3d
00000280: fc5d de3c 2d76 1b3d fd89 c8bd def2 68bd
00000290: 88fe 24bd eb7a c3bd 25ea e3bd b9ff 4bbe
000002a0: 5128 493c cfed 13bd 0993 983c 41a2 d2bb
000002b0: 2134 493e 6cf7 ca3d 340b 283d 8bbe fabc
000002c0: b741 263c 7416 67bc 1205 a53d 0916 2dbd
000002d0: fc03 243d 9f31 5cbc 1cad a53d 50d7 453e
000002e0: 4b88 0ebe e31c 513d 85be e7bc bd81 c73d
000002f0: b8d8 d1bd d94a 2fbd a2aa 47be 37d9 02bd
00000300: 2cdd 203c ca69 09be b2b0 ee3d 90dd 043e
00000310: 9a07 85bc d571 673d 6a03 bbbd 7631 7fbe
00000320: afca 17be 014d 183e 0817 2cbe f143 4abe
00000330: 91da 9cbd 0b93 cbbd 4ad0 d93d 5ae6 e33d
00000340: 7441 473e 0fa4 3cbc 638a 983c 67a5 053e
00000350: 16ea 9e3c f91f 8cbd cbf0 3b3d 2ddb d2bd
00000360: 715e 1b3d 1aae 173d 66f9 cc3a 30b8 f03d
00000370: 448f 19be 8eec 2d3e 9e8d 203e 0876 c83d
00000380: 2dda f23c 20ae 8b3c 4eb3 193d 76f3 ba3d
00000390: 3a2b da3d 3c3b bf3d 3500 a1bc 36e1 bbbc
000003a0: 2463 dd3d 997d 1a3e bd54 6b3d 536e c2bd
000003b0: ee8b 183d d593 113e d607 a5be 6e7e 41bd
000003c0: ba19 0e3e 2262 d83d a988 5e3d 4633 34be
000003d0: 876f c3bc b2f1 6fbd 2bb8 c53d aac4 cd3c
000003e0: 943f d3bd 6ee6 463d 2230 ed3d 55e0 94bd
000003f0: a388 583d d40e f4bc d9c8 78bd b3fc 7e3c

res2.conv21.bias f4 [32]
-0.03940649 0.010333737 -0.03616681 0.04715696 -0.015519509 0.0027416733 0.010810595 -0.0063631902
0.016621582 -0.027150413 0.0461645 0.0054019475 0.022612147 -0.063200906 -0.0410576 0.014339275
0.051880166 -0.018577633 0.002494267 0.018669857 0.035042383 -0.029737623 -0.004386025 -0.058016058
0.021765701 0.013324762 0.004325184 -0.013725888 -0.035772715 0.0048673954 0.008229462 -0.0028802035
00000000: b368 21bd d64e 293c a623 14bd a827 413d
00000010: 8a45 7ebc a5ad 333b ec1e 313c 4f82 d0bb
00000020: fc29 883c 8b6a debc fd16 3d3d d202 b13b
00000030: 1c3d b93c 7a6f 81bd 042c 28bd 47ef 6a3c
00000040: 4c80 543d 1f30 98bc db76 233b 87f1 983c
00000050: 9a88 0f3d 519c f3bc a5b8 8fbb 3fa2 6dbd
00000060: fc4d b23c 1a50 5a3c 46ba 8d3b 8ce2 60bc
00000070: 6986 12bd ac7e 9f3b ded4 063c ccc1 3cbb

res3.conv20.weight f4 [32, 32, 3, 3]
-0.08082446 -0.04964213 -0.024599625 0.00799417 0.1262241 0.22819091 -0.07591801 0.3857564
-0.10312913 -0.09500702 0.37547117 -0.12951918 0.10070804 0.0829085 -0.23158988 -0.11779101
0.20469737 -0.019014662 -0.028671876 -0.09370713 -0.044540636 -0.12741692 0.14055286 -0.06949627
0.029958514 0.041356094 -0.07770673 0.2501272 0.09952527 0.23319967 0.002657323 -0.048204903
0.25907597 -0.064868666 0.24296957 0.21030009 -0.2038811 0.06389366 -0.21101868 0.3301099
0.44442546 0.0787231 -0.29154247 -0.07196149 -0.14365521 -0.16423471 0.25394207 -0.05078067
0.046844218 0.24005215 0.050700746 -0.19637178 0.2867497 -0.21714261 0.01785219 -0.056192555
0.12450015 -0.27377915 0.13258524 -0.1856986 -0.032348562 -0.12471148 0.06701124 -0.16225627
0.086138025 -0.052228246 0.17502774 0.13307273 -0.03598936 -0.09087018 -0.029835666 -0.19830309
-0.15481223 -0.024077034 -0.25721222 0.0292014 0.13747291 0.0278217 0.080993444 0.15623343
-0.020472554 -0.039450843 -0.07284677 0.24555428 -0.2573007 -0.0685792 0.031039583 -0.063861415
-0.19087802 0.027443433 0.09051461 -0.114728585 -0.21150388 0.18735106 0.31937227 0.3551833
0.112597875 0.27945772 0.021627706 -0.03099927 0.26001143 -0.066618614 -0.28730208 -0.04521092
0.07385963 0.16042446 -0.1559773 0.10465096 0.15156855 -0.27094263 -0.21286723 0.0075337864
-0.055665568 -0.21410102 -0.04183606 -0.0074480954 -0.015838306 -0.015020133 -0.08092839 0.033079606
-0.056393497 0.1538547 0.031968106 0.026164545 -0.15533447 -0.022643158 -0.13936943 -0.03455927
0.18474902 -0.33379433 -0.13405663 -0.1556132 -0.010503773 -0.10529516 0.15252921 -0.24532197
0.11890201 0.13961211 -0.1738193 -0.05337207 -0.18004107 -0.14117217 0.29785463 0.2667612
-0.0047427253 0.10235737 -0.022224603 0.1080388 -0.1021017 -0.20269462 0.2062581 0.07567076
0.18270764 0.030490344 -0.0022436504 0.13714729 -0.22748013 -0.33005866 -0.04481622 0.13328339
0.11755004 0.0355362 0.18070368 -0.031330526 -0.23872344 -0.057866227 0.18306491 -0.056076553
-0.1334151 0.026954453 0.13506734 0.17620327 -0.076579265 0.076589264 -0.19719343 0.12473989
0.011444777 -0.124460824 0.040754437 0.033189762 0.2804279 0.24116649 -0.15771556 -0.10263951
-0.23180918 -0.17752425 -0.05834796 -0.40142232 -0.17079975 -0.01730114 -0.11089596 0.14614728
-0.008359442 -0.114998534 0.09837293 0.038837742 -0.1523914 0.3780523 -0.02749649 -0.011177405
-0.40423858 0.06998083 -0.48781946 -0.23515268 -0.08499916 0.054641437 0.25855798 -0.17146662
0.38368735 0.028672358 -0.45651016 -0.39148822 -0.39514443 -0.114898756 0.22857206 -0.029214457
0.07762155 -0.23362039 -0.040455688 0.18451996 0.08035295 -0.104126096 0.14074267 0.036662165
-0.061448872 0.08391053 -0.14947 0.03907062 -0.08064016 -0.009516754 0.007798166 0.1382034
-0.2019116 0.11062486 0.08465385 -0.030738207 -0.24443507 -0.21791255 -0.009190758 0.1747798
-0.34110117 0.027005436 -0.01781804 -0.1375232 0.07188184 0.071493894 -0.53826624 -0.5015504
0.28124863 -0.18723556 -0.12618235 -0.010352574 0.037546128 0.13828416 -0.024126 0.12634845
00000000: 4b87 a5bd 8c55 4bbd 2785 c9bc fbf9 023c
00000010: e440 013e e1aa 693e e77a 9bbd dd81 c53e
00000020: 5e35 d3bd 0a93 c2bd c23d c03e ada0 04be
00000030: 0440 ce3d efcb a93d e625 6dbe 6a3c f1bd
00000040: 309c 513e a3c4 9bbc 48e1 eabc 86e9 bfbd
00000050: 3e70 36bd 9579 02be 17ed 0f3e 0f54 8ebd
00000060: 8f6b f53c 0265 293d b524 9fbd ac10 803e
00000070: e8d3 cb3d e5cb 6e3e 7b26 2e3b 8172 45bd
00000080: 9ba5 843e ddd9 84bd 04cd 783e e858 573e
00000090: 35c6 50be aeda 823d 4815 58be 2a04 a93e
000000a0: bc8b e33e 9439 a13d 0e45 95be 8c60 93bd
000000b0: 5a1a 13be 252d 28be b204 823e 64ff 4fbd
000000c0: b9df 3f3d 3bd0 753e 96ab 4f3d af15 49be
000000d0: dbd0 923e a25a 5ebe c23e 923c 2a2a 66bd
000000e0: eff9 fe3d c82c 8cbe 6dc4 073e c627 3ebe
000000f0: ed7f 04bd bc68 ffbd 303d 893d 8226 26be
00000100: 2269 b03d 49ed 55bd 793a 333e 3844 083e
00000110: 9469 13bd 251a babd ed69 f4bc f70f 4bbe
00000120: 1987 1ebe 333d c5bc 52b1 83be c637 ef3c
00000130: b3c5 0c3e 55ea e33c e4df a53d a8fb 1f3e
00000140: 0fb6 a7bc 3597 21bd b030 95bd 9572 7b3e
00000150: ebbc 83be 4073 8cbd b946 fe3c c6c9 82bd
00000160: 8775 43be 0dd1 e03c b95f b93d d2f6 eabd
00000170: 7994 58be f5d8 3f3e c384 a33e 96da b53e
00000180: b799 e63d 1515 8f3e 962c b13c 2ef2 fdbc
00000190: 3820 853e 576f 88bd 4219 93be 162f 39bd
000001a0: b843 973d 4f46 243e 83b8 1fbe 3e53 d63d
000001b0: c934 1b3e feb8 8abe def9 59be fbdd f63b
000001c0: 9401 64bd 4c3d 5bbe 4a5c 2bbd 270f f4bb
000001d0: 56bf 81bc 0117 76bc c9bd a5bd 7b7e 073d
000001e0: defc 66bd 168c 1d3e fdf0 023d 0757 d63c
000001f0: 0010 1fbe 257e b9bc dcb6 0ebe 058e 0dbd
00000200: d92e 3d3e 17e7 aabe 2446 09be 1159 1fbe
00000210: 0418 2cbc fda4 d7bd 9e30 1c3e af35 7bbe
00000220: e682 f33d 7af6 0e3e b0fd 31be ac9c 5abd
00000230: b05c 38be 708f 10be 6780 983e ed94 883e
00000240: dd68 9bbb bea0 d13d 5f10 b6bc 7243 dd3d
00000250: b21a d1bd 2e8f 4fbe 5335 533e 45f9 9a3d
00000260: b617 3b3e e3c6 f93c 350a 13bb 5770 0c3e
00000270: 8df0 68be 73fd a8be 3691 37bd 717b 083e
00000280: 13be f03d 688e 113d 630a 393e 7054 00bd
00000290: eb73 74be 2305 6dbd 5e75 3b3e 87b0 65bd
000002a0: f89d 08be 96cf dc3c 184f 0a3e a16e 343e
000002b0: 97d5 9cbd d5da 9c3d 13ed 49be a177 ff3d
000002c0: e082 3b3c 51e5 febd 20ee 263d fdf1 073d
000002d0: 3f94 8f3e 59f4 763e 3080 21be aa34 d2bd
000002e0: 635f 6dbe ebc8 35be 45fe 6ebd 3a87 cdbe
000002f0: 21e6 2ebe 1fbb 8dbc 6c1d e3bd a2a7 153e
00000300: 0bf6 08bc 5a84 ebbd bf77 c93d 5314 1f3d
00000310: 7e0c 1cbe 1290 c13e 5240 e1bc 6f21 37bc
00000320: 5cf8 cebe 1c52 8f3d 79c3 f9be ddcb 70be
00000330: 0a14 aebd b3cf 5f3d b661 843e f294 2fbe
00000340: ab72 c43e 4be2 ea3c b3bb e9be 2571 c8be
00000350: 5f50 cabe 0a50 ebbd cb0e 6a3e 2853 efbc
00000360: 0cf8 9e3d 2f3a 6fbe ddb4 25bd cdf2 3c3e
00000370: 1690 a43d 1040 d5bd d91e 103e 112b 163d
00000380: d0b1 7bbd 49d9 ab3d aa0e 19be 8408 203d
00000390: ab26 a5bd 29ec 1bbc c287 ff3b 3185 0d3e
000003a0: eac1 4ebe 498f e23d ff5e ad3d b1ce fbbc
000003b0: 304d 7abe 7824 5fbe d594 16bc 7af9 323e
000003c0: d0a4 aebe 813a dd3c 23f7 91bc e2d2 0cbe
000003d0: c936 933d 646b 923d d1cb 09bf 9b65 00bf
000003e0: d2ff 8f3e aeba 3fbe f235 01be d89d 29bc
000003f0: f8c9 193d 5d9a 0d3e e4a3 c5bc 7d61 013e

res3.conv20.bias f4 [32]
-0.0764788 -0.024678936 -0.23694997 -0.070421234 -0.01172451 -0.061533082 0.007793671 -0.71054965
-0.017921058 0.061698705 0.040262666 -0.001154639 -0.05483726 -0.12756543 0.052471865 -0.027297448
-0.15407075 -0.08242751 -0.054652467 -0.14249748 -0.023445256 -0.0105036935 -0.10517197 -0.0072093457
-0.0770768 0.07013146 -0.092326015 -0.046119954 -0.037390415 -0.07301665 -0.09999544 -0.09648134
00000000: eba0 9cbd 7b2b cabc 03a3 72be 0239 90bd
00000010: 2918 40bc 1d0a 7cbd 0d62 ff3b 95e6 35bf
00000020: 2fcf 92bc c8b7 7c3d 77ea 243d 4157 97ba
00000030: 099d 60bd 83a0 02be bdec 563d e69e dfbc
00000040: b9c4 1dbe c1cf a8bd 44db 5fbd dcea 11be
00000050: 4410 c0bc af17 2cbc 6764 d7bd 603c ecbb
00000060: 71da 9dbd 15a1 8f3d 6c15 bdbd 47e8 3cbd
00000070: b126 19bd c189 95bd 69ca ccbd 0298 c5bd
