01-DL-toolbox(Pytorch)/UDL/pretrained-model/QB/pnn.pth (torch, 324127 bytes, 6 tensors)

conv1.weight f4 [64, 5, 9, 9]
0.04708632 0.036064576 0.01354019 -0.03686962 0.04618887 0.104062855 0.10356429 0.005521899
0.03260912 -0.03261406 0.0092363525 0.013845178 -0.017042087 -0.005834331 0.04138724 0.06327326
0.09355789 0.013686055 -0.013549246 0.045350865 0.07385007 -0.015222568 -0.05827093 -0.03781359
-0.008998437 0.04018909 -0.047923733 0.024601182 0.06334641 -0.03039515 0.08661094 -0.007127137
0.06460584 -0.015564123 -0.0010613834 -0.08748904 0.0021702454 -0.044888664 0.059391733 0.009686994
0.058763802 0.041001502 -0.0246544 0.02196045 0.008603 -0.0514424 0.007016996 -0.022588216
-0.0058747893 0.029790396 0.0072617996 0.09809852 -0.024069417 -0.0020844652 -0.020588342 -0.08107159
-0.046206698 -0.0022982045 -0.039753314 -0.007951383 0.07982508 0.08771226 -0.075490564 -0.024638202
0.0012056895 -0.037924346 -0.024641354 0.07220388 -0.047940698 0.072284 -0.012501736 0.01450188
-0.020254504 -0.029748464 -0.031556327 0.018882215 -0.08254935 0.0047918498 -0.020846633 -0.03486123
0.08127888 -0.06004003 -0.007084036 0.053936694 -0.0589618 -0.05061013 -0.0032505796 0.09158312
0.008169562 -0.07751736 0.009525218 -0.024967771 -0.020455966 0.049612682 -0.033326343 -0.01332787
-0.026294619 -0.037473258 -0.009874182 -0.04697332 -0.004957056 0.06600983 0.06739111 -0.023356682
-0.0023822268 0.021902665 -0.0017902104 -0.017794715 -0.044579376 -0.10301784 0.041940782 0.01857815
0.011286888 -0.112769105 -0.031038895 -0.023009278 0.060716312 -0.034281217 0.046686973 -0.074513495
0.0052401787 -0.050731104 -0.06241653 -0.10557451 -0.07141678 -0.014372773 -0.030257886 0.012729875
-0.052358896 -0.0070518283 -0.06696532 -0.016179329 -0.004611571 -0.047569424 -0.011993566 -0.10523201
-0.050095215 0.027179644 -0.0954612 0.038343173 -0.011778881 -0.07279826 -0.0011676642 0.00834533
0.059621677 0.094024315 -0.06299842 -0.014717791 -0.0059225895 -0.01626301 -0.06188832 -0.0564426
-0.058156136 -0.019557681 0.04275456 -0.0036051462 0.04726037 -0.06591051 -0.006890354 -0.030050393
0.00759623 -0.027230278 -0.026456248 -0.037468925 0.058558796 -0.102088645 0.08053011 -0.060896076
-0.024486702 0.0029228614 0.02614629 -0.06809873 0.08532506 0.046273526 0.033217225 0.015317845
0.06795243 -0.10206017 0.07519464 -0.08084744 0.025285354 -0.023280146 -0.023573196 0.016206993
0.038560305 0.0049957884 0.048279982 0.03572499 -0.02612214 0.037245538 0.003886258 -0.052363563
0.03699709 -0.0062595056 0.036990285 0.010031659 0.043768823 -0.07186136 0.06207908 0.07423253
0.048191972 0.041232977 -0.036371265 -0.03493555 -0.053389046 -0.06796022 0.01762237 -0.022701656
0.06490443 0.0074083307 -0.00869888 0.044646945 -0.053863846 -0.043599196 0.017867295 0.0019327216
0.0061437516 0.015657067 -0.05182516 -0.08677106 0.06212335 -0.06611321 0.051670544 -0.008004137
-0.071878955 -0.07781442 0.046851445 0.04925649 0.025576439 -0.076904885 -0.008324736 -0.023979649
0.005332877 0.036796823 0.01457532 0.021958413 -0.09116371 0.09927257 0.0055025863 -0.023366023
-0.06712258 0.031238949 -0.012126562 -0.075762175 -0.08137394 0.031540513 -0.018509027 0.016248873
-0.009289846 0.002051868 -0.01234841 0.0071356012 -0.06505919 -0.024327178 0.04628433 -0.11052443
00000000: 96dd 403d 73b8 133d acd7 5d3c 9904 17bd
00000010: 8a30 3d3d e81e d53d 8419 d43d 0cf1 b43b
00000020: 2491 053d 5296 05bd 1254 173c e3d6 623c
00000030: d99b 8bbc ea2d bfbb ab85 293d 6995 813d
00000040: 479b bf3d 7a3b 603c a8fd 5dbc d4c1 393d
00000050: b53e 973d 1468 79bc 80ad 6ebd 6ce2 1abd
00000060: 2e6e 13bc 519d 243d ad4b 44bd 6b88 c93c
00000070: c3bb 813d 40ff f8bc 1461 b13d c28a e9bb
00000080: 1150 843d aa00 7fbc 1e1e 8bba 742d b3bd
00000090: ad3a 0e3b 2ddd 37bd bf44 733d 33b6 1e3c
000000a0: 50b2 703d 31f1 273d 06f8 c9bc 67e6 b33c
000000b0: 99f3 0c3c 44b5 52bd d4ee e53b ec0a b9bc
000000c0: 4e81 c0bb fd0a f43c 64f4 ed3b e0e7 c83d
000000d0: 3a2d c5bc 869b 08bb e2a8 a8bc dd08 a6bd
000000e0: 3c43 3dbd 799d 16bb 5fd4 22bd 8446 02bc
000000f0: 557b a33d 7ca2 b33d cc9a 9abd 0ed6 c9bc
00000100: 3a08 9e3a 8f56 1bbd aadc c9bc a1df 933d
00000110: 775d 44bd a209 943d 15d4 4cbc 4b99 6d3c
00000120: c6ec a5bc 0db3 f3bc 3541 01bd e0ae 9a3c
00000130: a20f a9bd f304 9d3b 8fc6 aabc a6ca 0ebd
00000140: 8b75 a63d 89ec 75bd 3321 e8bb b9ec 5c3d
00000150: ee81 71bd 914c 4fbd ad07 55bb ee8f bb3d
00000160: a0d9 053c 6cc1 9ebd a90f 1c3c 3689 ccbc
00000170: 4593 a7bc ab36 4b3d 3481 08bd 235d 5abc
00000180: d067 d7bc 8f7d 19bd 52c7 21bc 1967 40bd
00000190: cd6e a2bb 2930 873d 5a04 8a3d 8356 bfbc
000001a0: 221f 1cbb 386d b33c 7ea5 eaba 39c6 91bc
000001b0: dd98 36bd 04fb d2bd 19ca 2b3d 3431 983c
000001c0: a4ec 383c 7df3 e6bd 4845 febc f47d bcbc
000001d0: abb1 783d 766a 0cbd d73a 3f3d 889a 98bd
000001e0: ceb5 ab3b 6bcb 4fbd 7aa8 7fbd 7337 d8bd
000001f0: f642 92bd c77b 6bbc 63df f7bc f790 503c
00000200: 4876 56bd 0613 e7bb 1d25 89bd 838a 84bc
00000210: a91c 97bb 28d8 42bd a980 44bc e183 d7bd
00000220: a430 4dbd d8a7 de3c 2981 c3bd bb0d 1d3d
00000230: 35fc 40bc 4117 95bd 4f0c 99ba daba 083c
00000240: dc35 743d d28f c03d 5105 81bd e422 71bc
00000250: 4812 c2bb 013a 85bc 9b7e 7dbd 5b30 67bd
00000260: 2135 6ebd 6e37 a0bc 681f 2f3d 5144 6cbb
00000270: 1794 413d 17fc 86bd 7bc8 e1bb 3e2c f6bc
00000280: cce9 f83b 0812 dfbc c6ba d8bc 0479 19bd
00000290: 59db 6f3d da13 d1bd f8ec a43d 2a6e 79bd
000002a0: 5698 c8bc 7a8d 3f3b bf30 d63c 5977 8bbd
000002b0: e8be ae3d 4f89 3d3d c90e 083d b3f7 7a3c
000002c0: a52a 8b3d ec04 d1bd a6ff 993d 5893 a5bd
000002d0: 3b23 cf3c 01b6 bebc 931c c1bc 87c4 843c
000002e0: 69f1 1d3d b6b3 a33b 3bc1 453d 5e54 123d
000002f0: 19fe d5bc c78e 183d 97b0 7e3b 2d7b 56bd
00000300: 438a 173d 8a1c cdbb 2083 173d d45b 243c
00000310: f046 333d 0c2c 93bd a246 7e3d 3a07 983d
00000320: f264 453d e9e3 283d 09fa 14bd 9418 0fbd
00000330: 79ae 5abd ba2e 8bbd ca5c 903c d3f8 b9bc
00000340: 9dec 843d 95c1 f23b bf85 0ebc b7df 363d
00000350: 56a0 5cbd 1295 32bd 6f5e 923c 6053 fd3a
00000360: 8651 c93b 4043 803c 9e46 54bd 07b5 b1bd
00000370: 0e75 7e3d 5d66 87bd 7ea4 533d c923 03bc
00000380: 4635 93bd 2b5d 9fbd 4de7 3f3d 2cc1 493d
00000390: ae85 d13c 4f80 9dbd 7964 08bc f870 c4bc
000003a0: 6abf ae3b 44b8 163d 53cd 6e3c 21e2 b33c
000003b0: 0ab4 babd 6b4f cb3d 0a4f b43b 1a6a bfbc
000003c0: 9077 89bd d3e8 ff3c 7dae 46bc 3329 9bbd
000003d0: 61a7 a6bd a030 013d 3ea0 97bc 5b1c 853c
000003e0: 7034 18bc a278 063b fc50 4abc c3d1 e93b
000003f0: c13d 85bd ca49 c7bc a394 3d3d a25a e2bd

conv1.bias f4 [64]
-0.027361978 -0.011543678 0.0020493984 -0.016935406 -0.118981734 -0.007038264 0.05731227 -0.01131785
-0.0011815833 -0.026697727 0.06327255 -0.044360265 -0.018526006 -0.020101557 -0.007868632 0.028246429
-0.04215571 0.009403417 0.0 -0.035560712 -0.023226256 0.0 -0.0022842365 -0.008698568
0.01077168 -0.0069094603 -0.015762014 0.0 0.003949518 -0.009492949 -0.023134576 -0.034670196
0.098677315 -0.02291247 -0.027158739 -0.027770502 0.0046674265 0.001582097 -0.08400642 -0.019947793
-0.06269067 0.028442036 0.0033444257 -0.12781626 -0.0066777365 0.16080283 -0.03522184 -0.0036074102
-0.006347392 -0.004935437 -0.01341038 -0.011328061 -0.016498797 0.009928134 -0.017456867 0.062529884
0.10228269 0.16579558 -0.030383304 0.024825308 -0.00055570324 -0.04221258 -0.020407679 -0.00815228
00000000: 3a26 e0bc b221 3dbc 334f 063b 1fbc 8abc
00000010: b2ac f3bd 3da1 e6bb 45c0 6a3d 816e 39bc
00000020: 5bdf 9aba 31b5 dabc 0a95 813d 1cb3 35bd
00000030: dac3 97bc 05ac a4bc 6feb 00bc 0e65 e73c
00000040: 77ab 2cbd ca10 1a3c 0000 0000 1ca8 11bd
00000050: fd44 bebc 0000 0000 21b3 15bb 7084 0ebc
00000060: b37b 303c c168 e2bb 571f 81bc 0000 0000
00000070: f56a 813b 5088 1bbc b984 bdbc 5602 0ebd
00000080: 5517 ca3d efb2 bbbc 017c debc f77e e3bc
00000090: 36f1 983b 5e5e cf3a 8f0b acbd 8e69 a3bc
000000a0: f763 80bd 46ff e83c 272e 5b3b 44e2 02be
000000b0: ead0 dabb 7fa9 243e c744 10bd 4d6a 6cbb
000000c0: c9fd cfbb 72b9 a1bb 36b7 5bbc 5599 39bc
000000d0: 7c28 87bc 9da9 223c b401 8fbc ab0f 803d
000000e0: 9679 d13d 51c6 293e 68e6 f8bc 725e cb3c
000000f0: 9dac 11ba 19e7 2cbd 012e a7bc 2491 05bc

conv2.weight f4 [32, 64, 5, 5]
-0.016632255 -0.024147173 -0.0028087525 -0.039285168 -0.019551167 0.010431474 -0.00033939828 -0.04362675
0.008962995 0.0349703 0.032681625 0.008310816 0.004622042 -0.0088464245 -0.026660644 -0.011068823
0.011723234 0.031206802 0.005155687 0.013957693 -0.016238794 0.02065456 -0.00017542113 0.011588858
-0.022401068 -0.040269922 0.033422183 0.011070961 0.01353929 0.026645835 -0.009897059 0.0072130132
-0.005905826 0.0047440697 -0.019550193 0.010359714 -0.023655431 0.00529402 -0.0016663447 -0.0072308914
0.018373463 -0.005244019 -0.008152857 -0.04056732 0.0028684253 -0.036153916 -0.00021113563 0.0067749964
0.015145889 0.05081919 0.020979058 0.00089344266 -0.017818253 -0.028854253 0.031942967 -0.0073948214
-0.015105867 0.026839025 0.0009814587 0.0002951187 0.018003447 -0.0395577 -0.01985077 -0.04740429
-0.0010538603 0.02381136 -0.010995576 0.040191747 -0.027896672 -0.021486418 -0.051285166 0.008495777
-0.012904426 0.023104003 -0.011707313 -0.035863724 0.05184623 -0.047680978 0.0002479552 0.046281338
-0.014933452 0.03168348 -0.0042909025 -0.0010532562 0.04611045 -0.0031896103 -0.01850153 0.013175334
-0.014778354 0.0066749197 0.034496903 0.042485487 0.018800922 -0.031003684 0.0047729183 -0.031528134
-0.005263709 0.028914204 -0.018914506 -0.047700606 0.00090955297 0.003906743 0.01415693 -0.011112847
-0.025935335 -0.030681983 0.01712979 0.018608568 -0.0065207845 0.0030692639 -0.006285448 0.03120733
0.0056590755 -0.003962077 0.021457402 -0.034102615 0.014837319 0.031192288 -0.017645955 -0.007223584
0.021411162 0.016123375 0.043839533 0.03750523 0.005673749 0.0076355203 0.026236283 -0.02817621
-0.011662364 -0.049438905 0.0072850673 0.015801536 0.025921354 0.003036184 0.025188059 0.0024873863
-0.02956276 0.015073799 -0.03191264 0.012846572 -0.017236019 0.0038969999 -0.024895245 -0.011203248
-0.037461907 0.040990382 -0.0031319496 -0.021779004 0.021901976 0.010487915 0.0068601174 0.030789772
-0.014693588 -0.018686945 -0.008830155 0.025728466 0.040612713 -0.017179703 -0.007299841 -0.036117923
0.0003309337 0.014252452 -0.024728822 0.038434573 -0.015961876 -0.013170152 -0.013336898 0.004244137
-0.009422504 -0.005852734 0.055918176 0.011382194 -0.046388853 0.020183522 -0.002963844 -0.045760613
0.01183368 -0.048247427 0.040942553 -0.019835794 -0.02938958 -0.0092394175 -0.0091145 -0.04449922
0.03194048 0.017714066 0.010405304 -0.03532119 -0.010243484 0.008931421 0.001192365 -0.012753106
0.046918947 -0.0068756603 0.0017789326 0.0005844881 -0.033123124 0.0185921 -0.007410155 -0.03994041
0.0044033774 -0.052596115 0.00766998 0.013173835 0.0047883247 -0.0015747905 -0.032301713 0.048178844
0.008578539 0.047758933 -0.03138836 0.010664563 -0.0046491697 0.048673008 -0.025038576 0.033954035
0.008368608 -0.0011999338 -0.03116739 0.02346747 -0.016900083 0.014873196 -0.011918771 -0.015497193
0.004678709 -0.03249034 -0.056373473 -0.002923734 -0.051385365 -0.00959688 0.027178472 -0.013918888
0.018025545 0.027305767 -0.018603291 0.009428016 0.009656912 0.0062143425 0.020835066 -0.05407075
0.006295284 -0.004271418 0.0028158033 -0.03631063 0.0016128012 0.02131326 -0.024236428 0.0010844782
-0.02496304 0.03864253 0.013430821 0.029770358 0.00609301 0.019731551 -0.009500903 -0.007242856
00000000: 5e40 88bc 4bd0 c5bc 0c13 38bb 7ce9 20bd
00000010: c529 a0bc c6e8 2a3c 44f1 b1b9 f7b1 32bd
00000020: 87d9 123c 043d 0f3d 2bdd 053d 172a 083c
00000030: 8074 973b 98f0 10bc 6c67 dabc 025a 35bc
00000040: cf12 403c 68a5 ff3c 0af1 a83b cfae 643c
00000050: 3807 85bc c033 a93c 40f1 37b9 32df 3d3c
00000060: 7282 b7bc 13f2 24bd b3e5 083d fa62 353c
00000070: e6d3 5d3c 5e48 da3c 4627 22bc 245b ec3b
00000080: a985 c1bb 2474 9b3b ba27 a0bc cabb 293c
00000090: 09c9 c1bc 7579 ad3b 4069 daba 1df1 ecbb
000000a0: f283 963c 05d6 abbb 9093 05bc eb29 26bd
000000b0: 31fc 3b3b 2116 14bd 4a64 5db9 ca00 de3b
000000c0: 7626 783c c827 503d 46dc ab3c ec35 6a3a
000000d0: 96f7 91bc c15f ecbc a1d6 023d 4250 f2bb
000000e0: 997e 77bc 84dd db3c 4aa4 803a 29ba 9a39
000000f0: f77b 933c 4107 22bd 159e a2bc 002b 42bd
00000100: af21 8aba 0b10 c33c ca26 34bc 1aa0 243d
00000110: 9087 e4bc 4904 b0bc 6510 52bd df31 0b3c
00000120: 166d 53bc 9b44 bd3c 08d0 3fbc d7e5 12bd
00000130: b65c 543d 214d 43bd fcff 8139 8091 3d3d
00000140: 70ab 74bc 89c6 013d b39a 8cbb 6a0d 8aba
00000150: 50de 3c3d c808 51bb 8590 97bc 5bdd 573c
00000160: e920 72bc 49b9 da3b a04c 0d3d 4305 2e3d
00000170: 6404 9a3c 70fb fdbc 2466 9c3b a523 01bd
00000180: 317b acbb 7bdd ec3c 98f2 9abc b661 43bd
00000190: 116f 6e3a 2304 803b 78f2 673c a912 36bc
000001a0: 5776 d4bc c858 fbbc c653 8c3c ff70 983c
000001b0: 4eac d5bb b425 493b 29f6 cdbb 84a6 ff3c
000001c0: c46f b93b 50d4 81bb 6fc7 af3c 2faf 0bbd
000001d0: 3a18 733c f886 ff3c 408e 90bc d1b3 ecbb
000001e0: 7666 af3c 2b15 843c 1591 333d 169f 193d
000001f0: dbea b93b 6333 fa3b 79ed d63c ccd1 e6bc
00000200: 8013 3fbc 7380 4abd 93b7 ee3b 3972 813c
00000210: 0559 d43c b7fa 463b 3057 ce3c 6b03 233b
00000220: 9a2d f2bc 18f8 763c d4b6 02bd 6e7a 523c
00000230: 8d32 8dbc cf64 7f3b 1df1 cbbc d48d 37bc
00000240: a871 19bd 88e5 273d 6541 4dbb e269 b2bc
00000250: c66b b33c 81d5 2b3c d6ca e03b d53a fc3c
00000260: 60bd 70bc 5d15 99bc 5bac 10bc 81c4 d23c
00000270: 8459 263d 73bc 8cbc 8133 efbb 63f0 13bd
00000280: 2b81 ad39 1e83 693c 1994 cabc 926d 1d3d
00000290: 7bc2 82bc 9fc7 57bc 0183 5abc 6712 8b3b
000002a0: d960 1abc 4bc8 bfbb 750a 653d 627c 3a3c
000002b0: 3d02 3ebd ea57 a53c 0d3d 42bb 7b6f 3bbd
000002c0: 0de2 413c 189f 45bd 61b3 273d ad7e a2bc
000002d0: 6bc2 f0bc ed60 17bc fc54 15bc d044 36bd
000002e0: 05d4 023d 171d 913c 027b 2a3c f4ac 10bd
000002f0: 49d4 27bc 1855 123c 2149 9c3a 67f2 50bc
00000300: 152e 403d 384d e1bb 132b e93a 5538 193a
00000310: 1dac 07bd 764e 983c e3d0 f2bb 8e98 23bd
00000320: 354a 903b 066f 57bd 7554 fb3b 12d7 573c
00000330: 61e7 9c3b 3369 ceba cd4e 04bd 2e57 453d
00000340: 008d 0c3c df9e 433d 1591 00bd 6bba 2e3c
00000350: 1058 98bb 595d 473d b31d cdbc 6313 0b3d
00000360: 7c1c 093c 1947 9dba c152 ffbc da3e c03c
00000370: 0b72 8abc b5ae 733c f346 43bc f0e7 7dbc
00000380: db4f 993b 9714 05bd dfe7 66bd 1e9c 3fbb
00000390: 7679 52bd 3b3c 1dbc 63a5 de3c 0c0c 64bc
000003a0: 4faa 933c 58b0 df3c ee65 98bc f777 1a3c
000003b0: 0638 1e3c afa1 cb3b 4dae aa3c 4a79 5dbd
000003c0: ab48 ce3b 40f7 8bbb 5789 383b 75ba 14bd
000003d0: a164 d33a 2599 ae3c 798b c6bc 0d25 8e3a
000003e0: 4a7f ccbc a147 1e3d f20c 5c3c f7e0 f33c
000003f0: dfa7 c73b 10a4 a13c ada9 1bbc 7b55 edbb

conv2.bias f4 [32]
-0.025460752 -0.026427677 -0.034391336 -0.050875165 -0.04239269 -0.02044947 -0.013151572 -0.043627955
-0.0045127706 -0.06937335 -0.029023197 -0.012833388 -0.1136842 0.05260015 -0.014823193 0.021888698
0.06197602 0.0140623 -0.027648035 -0.0034875553 -0.06130505 -0.017058559 -0.023918059 -0.017711973
0.015290377 -0.012324174 -0.020217637 0.11661003 -0.04256754 0.058134045 -0.029168427 -0.014930321
00000000: 1193 d0bc db7e d8bc eedd 0cbd 7a62 50bd
00000010: f5a3 2dbd a685 a7bc b179 57bc 3ab3 32bd
00000020: dddf 93bb 9d13 8ebd 0ec2 edbc 2143 52bc
00000030: 43d3 e8bd 4173 573d fadc 72bc ed4f b33c
00000040: 91da 7d3d 9065 663c 227e e2bc 788f 64bb
00000050: 011b 7bbd 64be 8bbc ceef c3bc b318 91bc
00000060: 7d84 7a3c 55eb 49bc 759f a5bc 3dd1 ee3d
00000070: 4d5b 2ebd f71d 6e3d a0f2 eebc 4e9e 74bc

conv3.weight f4 [4, 32, 5, 5]
-0.04027484 0.06523692 0.08506645 0.067122616 -0.012944183 -0.016675826 0.015170262 -0.03950098
0.0023078076 0.0038495546 -0.037881106 -0.022330383 -0.03852176 -0.04488034 0.0438612 -0.023601092
-0.013616472 -0.03026174 0.060826477 -0.034868613 -0.00637571 0.011239184 -0.035612248 0.039081875
0.017615408 0.064590916 -0.007997927 -0.009832021 -0.0032647462 0.055415563 -0.0050612027 0.006538267
-0.00017543438 0.013804156 -0.0025173898 0.0100547 0.010894057 -0.055480454 0.036410272 -0.006498281
0.013375167 0.03833373 0.043294117 0.07074704 -0.04054124 -0.025832282 -0.02763177 0.016590167
0.015717952 0.014830228 -0.034045912 -0.037824407 0.0064457846 8.891751e-05 7.29537e-05 0.031990904
0.024693485 0.019096691 0.044092964 -0.046778187 -0.045174345 0.020473622 0.0025147446 0.020211043
0.012815401 0.027787803 0.07030198 0.059154823 0.060191516 0.019976227 -0.026063541 -0.021246795
0.027167877 0.02942189 0.023970785 -0.061044175 -0.026414255 -0.028935501 -0.039439276 -0.06971714
-0.04914136 0.04388772 0.044264402 -0.011236438 -0.04494247 0.0012974137 0.12739696 0.120638214
0.027799167 -0.018525384 0.00793934 0.049461633 0.07244129 0.048381384 -0.02142275 -0.05554963
-0.02244497 0.0058373455 -0.032021333 -0.055725753 -0.034946285 0.011464177 0.034004066 0.03579981
-0.0100752665 -0.013617936 0.060867377 0.03669144 0.038937487 -0.011622393 0.0025947292 0.03379557
0.060148094 -0.003980977 -0.023174899 -0.03216646 -0.036308393 0.020629568 0.043924525 -0.037280258
-0.04220953 -0.053225994 0.025132176 0.0069176797 -0.023209222 -0.040922597 0.006520158 -0.039375257
0.07895972 -0.033198386 -0.008452198 -0.0010581231 0.02526427 0.0077989055 0.002128375 -0.023572726
-0.029555246 -0.018688124 0.021754827 0.066296495 0.08716334 0.054255523 0.018360145 -0.021159356
-0.029271424 -0.005643935 0.051668245 -0.0100102 0.012932867 0.01775819 0.016371762 0.03877696
-0.018399067 -0.011553838 0.025621375 0.023408413 0.019040892 -0.0120141795 -0.02235458 0.013772669
-0.0067176227 0.021517964 0.06681073 -0.0022362429 -0.051623695 -0.06607654 0.019655317 0.028775891
-0.033900905 0.052507456 0.010143997 -0.042140435 -0.007939843 0.07610559 0.057023417 -0.025982965
0.033894263 0.037763994 0.029319279 0.045913316 0.039620932 0.033671524 0.015664278 0.042289563
-0.005142888 0.05978359 0.06759473 -0.0051511903 -0.02309727 0.024634074 0.052586325 -0.009190263
0.01696456 0.030675994 0.032532074 0.06151459 0.020121988 -0.035831526 -0.02826841 -0.016746504
-0.034915816 0.04941914 0.013188503 0.007388476 -0.027923001 -0.014725095 0.030998578 -0.00041768543
-0.012586145 -0.02322039 -0.053420294 -0.0473148 -0.006163484 -0.030598534 0.029839866 0.021720838
-0.05622964 -0.060187597 0.068257615 -0.057110302 0.047044016 0.021413706 0.034810133 0.0515096
-0.04371463 -0.038763653 0.02350437 0.07789267 0.07863761 -0.0299481 -0.058093697 -0.052416176
0.03837257 -0.014622801 0.06665445 0.020282796 -0.03613998 -0.027570667 0.01653849 -0.009646556
0.013490942 0.028374748 0.008386765 0.036119163 0.048332505 0.033547647 0.036691442 -0.07111344
-0.051909152 -0.021882355 0.033069026 0.003658618 0.0049739056 -0.04683968 0.030331874 0.06289869
00000000: 3bf7 24bd ef9a 853d 5237 ae3d 9577 893d
00000010: d713 54bc be9b 88bc b18c 783c c8cb 21bd
00000020: 963e 173b cf48 7c3b 3829 1bbd 35ee b6bc
00000030: fec8 1dbd 73d4 37bd cda7 333d 1457 c1bc
00000040: 9f17 5fbc 78e7 f7bc 2f25 793d 64d2 0ebd
00000050: 55eb d0bb 8e24 383c 26de 11bd 5114 203d
00000060: 304e 903c 3e48 843d bd09 03bc 7c16 21bc
00000070: 5af5 55bb 6efb 623d 72d8 a5bb f53e d63b
00000080: cff4 37b9 d42a 623c cbfa 24bb 78bc 243c
00000090: fd7c 323c 793f 63bd f022 153d 88ef d4bb
000000a0: 8423 5b3c d403 1d3d 2c55 313d d3e3 903d
000000b0: 920e 26bd 399e d3bc 065c e2bc 1ae8 873c
000000c0: efc2 803c 7cfa 723c ba73 0bbd c4ed 1abd
000000d0: 2937 d33b 3a79 ba38 b8fe 9838 e508 033d
000000e0: fe49 ca3c aa70 9c3c d39a 343d 7c9a 3fbd
000000f0: bc08 39bd 4cb8 a73c 6ace 243b a191 a53c
00000100: b0f7 513c 3fa3 e33c 7cfa 8f3d 544c 723d
00000110: 618b 763d 2fa5 a33c 3583 d5bc c20d aebc
00000120: 2b8f de3c 2d06 f13c 615e c43c 7509 7abd
00000130: b562 d8bc 250a edbc 148b 21bd dcc7 8ebd
00000140: 7348 49bd 9cc3 333d 974e 353d 0919 38bc
00000150: 9815 38bd fb0d aa3a 5974 023e 2b11 f73d
00000160: 14bb e33c 8cc2 97bc 0114 023c 4898 4a3d
00000170: 195c 943d 8f2b 463d c37e afbc 0288 63bd
00000180: 84de b7bc 3447 bf3b cd28 03bd b040 64bd
00000190: d623 0fbd 3ed4 3b3c d947 0b3d d2a2 123d
000001a0: bb12 25bc c31d 5fbc 1250 793d c349 163d
000001b0: ea7c 1f3d d96b 3ebc 550c 2a3b 396d 0a3d
000001c0: d95d 763d db72 82bb 49d9 bdbc fac0 03bd
000001d0: 1cb8 14bd 57ff a83c 34ea 333d 2fb3 18bd
000001e0: e6e3 2cbd 8003 5abd fee1 cd3c b4ad e23b
000001f0: 4421 bebc 749e 27bd 0da7 d53b f347 21bd
00000200: a2b5 a13d 08fb 07bd 167b 0abc b8b0 8aba
00000210: 04f7 ce3c f68d ff3b 357c 0b3b 971b c1bc
00000220: d81d f2bc d617 99bc 2e37 b23c 75c6 873d
00000230: b182 b23d 0a3b 5e3d 0468 963c 6356 adbc
00000240: a0ca efbc c2f0 b8bb 15a2 533d d201 24bc
00000250: 60e4 533c a079 913c 131e 863c 97d4 1e3d
00000260: a4b9 96bc 4f4c 3dbc ebe3 d13c 00c3 bf3c
00000270: a5fb 9b3c 1fd7 44bc f420 b7bc c3a6 613c
00000280: 811f dcbb 7146 b03c 10d4 883d ee8d 12bb
00000290: 5e73 53bd 2353 87bd 3004 a13c 6bbb eb3c
000002a0: addb 0abd 0f12 573d 0233 263c 739b 2cbd
000002b0: 1e16 02bc 3fdd 9b3d 6391 693d 3ada d4bc
000002c0: b6d4 0a3d 6bae 1a3d fc2e f03c 9a0f 3c3d
000002d0: 8f49 223d 27eb 093d 5f52 803c d237 2d3d
000002e0: ac85 a8bb a3df 743d 1b6f 8a3d 51cb a8bb
000002f0: 7c36 bdbc 66cd c93c c264 573d c292 16bc
00000300: 43f9 8a3c 394c fb3c 5a40 053d b9f6 7b3d
00000310: ded6 a43c 14c4 12bd 2793 e7bc f72f 89bc
00000320: e303 0fbd b96b 4a3d 9714 583c 071b f23b
00000330: c7be e4bc 8641 71bc bbf0 fd3c cafc dab9
00000340: 1e36 4ebc b038 bebc 3dcf 5abd 2acd 41bd
00000350: 0df7 c9bb c7a9 fabc bc72 f43c e6ef b13c
00000360: 0d51 66bd 4587 76bd a6ca 8b3d 7eec 69bd
00000370: 3ab1 403d cc6b af3c 1295 0e3d bbfb 523d
00000380: 1d0e 33bd a3c6 1ebd 3d8c c03c 3186 9f3d
00000390: c10c a13d b855 f5bc a8f3 6dbd 58b2 56bd
000003a0: 8e2c 1d3d 7994 6fbc 2182 883d 1b28 a63c
000003b0: 8407 14bd e1db e1bc ba7b 873c 970c 1ebc
000003c0: 1d09 5d3c 2972 e83c a468 093c b0f1 133d
000003d0: 4ef8 453d 4269 093d c449 163d eca3 91bd
000003e0: b19e 54bd a042 b3bc 6373 073d 6dc5 6f3b
000003f0: 25fc a23b f7da 3fbd 8d7a f83c 07d1 803d

conv3.bias f4 [4]
0.041038964 0.00524756 0.088858195 0.1836822
00000000: 7918 283d b9f3 ab3b 49fb b53d 3017 3c3e
